temp/model/0-model.pth (torch, 372070 bytes, 14 tensors)

weight f4 [256]
000000 ab 23 80 3f d5 e1 73 3f 9f 9e 6d 3f a0 50 72 3f
       1.0010885 0.9526647 0.9282016 0.94654274
000010 10 43 80 3f c7 2b 5c 3f 1e 1b 70 3f 28 05 53 3f
       1.0020466 0.860043 0.9379138 0.8242974
000020 cb 5d 72 3f 5a 78 6c 3f 97 3d 5b 3f bb bd 77 3f
       0.94674367 0.9237114 0.85640854 0.9677388
000030 08 67 7c 3f 29 02 76 3f 46 0b 6c 3f 43 fc 7e 3f
       0.98594713 0.96097046 0.922047 0.9960367
000040 7e 74 71 3f 73 69 73 3f ce 5e 7b 3f c7 48 5f 3f
       0.9431838 0.9508278 0.98191535 0.87220424
000050 17 37 63 3f 29 61 64 3f 3f 6c 78 3f 2b 26 53 3f
       0.88755935 0.89210755 0.9704017 0.82480115
000060 e0 1c 70 3f b1 78 45 3f 81 1f 5d 3f d1 4d 7c 3f
       0.9379406 0.77137285 0.86376196 0.9855624
000070 9d 5c 70 3f fe d4 71 3f 58 36 65 3f d8 db 50 3f
       0.93891317 0.94465625 0.89536047 0.81585455
000080 1d 64 62 3f a5 4c 68 3f 9d 1f 80 3f 5d 85 75 3f
       0.8843401 0.9074195 1.0009648 0.9590662
000090 d0 93 78 3f 1c 4f 6e 3f 7f 05 58 3f c3 78 65 3f
       0.97100544 0.9308946 0.84383386 0.8963739
0000a0 65 bc 7c 3f 80 50 83 3f ac 33 79 3f 03 fa 66 3f
       0.9872497 1.0258942 0.9734447 0.9022524
0000b0 cc c6 65 3f 2f cb 72 3f 57 1f 7f 3f cb 7a 78 3f
       0.89756465 0.94841284 0.99657196 0.9706237
0000c0 e7 5a 5c 3f ae 90 6e 3f 18 03 7a 3f af be 6e 3f
       0.86076206 0.93189514 0.9766097 0.9325971
0000d0 d1 6b 57 3f cf f2 57 3f 3b 62 6a 3f d2 86 80 3f
       0.8414889 0.8435487 0.9155614 1.0041144
0000e0 0c 62 73 3f 5c 19 6b 3f 25 ef 80 3f 70 3f 69 3f
       0.9507148 0.9183557 1.0072981 0.9111242
0000f0 a5 02 7c 3f 1c 03 59 3f 92 5a 63 3f 3c bb 85 3f
       0.98441535 0.8477037 0.88810074 1.0447764
000100 8a cf 6a 3f 2b ab 82 3f 3c 8e 72 3f 3c 5b 5a 3f
       0.9172293 1.0208486 0.9474828 0.8529546
000110 be 5e 83 3f 35 60 74 3f 72 8e 68 3f e5 9a 79 3f
       1.0263288 0.954593 0.90842354 0.97501975
000120 69 f2 68 3f ba af 7e 3f e9 d6 4f 3f 28 81 83 3f
       0.9099489 0.9948689 0.811873 1.027379
000130 82 ba 78 3f 10 16 71 3f 62 4f 7f 3f b9 6f 5d 3f
       0.9715959 0.9417429 0.99730504 0.864986
000140 4f 28 7b 3f 6c cd 74 3f 0d 54 79 3f 9c 1c 73 3f
       0.9810838 0.9562595 0.97393876 0.9496553
000150 57 0f 6b 3f 57 ad 66 3f 8b 13 6f 3f 8e 78 7c 3f
       0.9182028 0.90108246 0.93389195 0.9862145
000160 47 4a 6d 3f 8e 2d 9b 3f 07 e6 66 3f 80 fc 62 3f
       0.92691463 1.2123277 0.90194744 0.88666534
000170 64 32 82 3f 0f ff 73 3f 0d 0e 5e 3f 7d b9 72 3f
       1.0171628 0.95311064 0.8674019 0.9481428
000180 0e 60 63 3f 86 ae 6f 3f 06 51 75 3f 02 49 7a 3f
       0.8881844 0.93625677 0.95826757 0.9776765
000190 0c cd 78 3f 4d 4f 4c 3f 06 95 77 3f e6 69 7c 3f
       0.97187877 0.79808503 0.96711767 0.9859909
0001a0 52 8b 5c 3f 94 bb 5f 3f b4 21 82 3f bb 89 88 3f
       0.86150086 0.87395597 1.0166535 1.0667032
0001b0 3f c4 81 3f a6 f2 5f 3f 51 5d 7e 3f ae 6c 5c 3f
       1.0138015 0.8747963 0.9936114 0.8610333
0001c0 d0 51 78 3f f7 4a 52 3f fb fd 69 3f b8 b9 6e 3f
       0.96999836 0.8214564 0.9140317 0.93252134
0001d0 80 30 77 3f c2 a1 71 3f ad 7b 6f 3f f8 d8 63 3f
       0.9655838 0.9438745 0.9354809 0.89002943
0001e0 4d f6 82 3f 3c 72 62 3f 02 3e 68 3f 95 b8 63 3f
       1.0231415 0.8845556 0.90719616 0.88953525
0001f0 1b 37 92 3f b6 7a 53 3f f1 e3 83 3f 68 0b 7f 3f
       1.1423067 0.8260912 1.0303937 0.9962678
000200 11 05 68 3f 00 8c 82 3f 69 fd 72 3f c8 31 66 3f
       0.9063273 1.0198975 0.94917923 0.8991971
000210 d3 af 88 3f 7e 1a 81 3f 9e b2 6b 3f 91 1f 70 3f
       1.0678657 1.008621 0.92069423 0.93798167
000220 19 01 87 3f e0 d4 7e 3f 88 0a 56 3f b9 ca 64 3f
       1.054721 0.9954357 0.8360982 0.8937183
000230 09 e3 80 3f 86 9b 63 3f b1 ac 6d 3f 24 9d 7d 3f
       1.0069286 0.88909185 0.9284163 0.990679
000240 70 d1 75 3f a3 dc 6b 3f 33 5a 69 3f 26 6f 67 3f
       0.960227 0.9213354 0.9115326 0.90403974
000250 8d 22 7c 3f a7 4e 80 3f 19 04 78 3f f2 55 81 3f
       0.9849022 1.0024003 0.9688125 1.0104353
000260 65 2c 80 3f d3 83 79 3f ce d9 6e 3f 6d f8 6f 3f
       1.0013548 0.9746677 0.93301094 0.9373844
000270 4e 2d 6e 3f e0 ae 7a 3f ba b9 74 3f 0d 7f 5e 3f
       0.9303788 0.9792309 0.95595896 0.86912614
000280 54 00 72 3f d7 21 72 3f dc 35 76 3f 82 cb 66 3f
       0.9453175 0.94582886 0.9617593 0.9015428
000290 fd f2 64 3f 68 b5 69 3f 7d 3b 7e 3f 55 0a 4b 3f
       0.8943327 0.9129243 0.9930952 0.7931264
0002a0 fe e2 65 3f 2f 9d 65 3f 7e 19 69 3f b3 dc 7e 3f
       0.8979949 0.8969297 0.91054523 0.9955551
0002b0 64 ce 6f 3f 65 a5 65 3f dc e3 6e 3f 5b 9f 76 3f
       0.936743 0.897055 0.93316436 0.9633691
0002c0 ef 06 79 3f 69 1a 67 3f 83 c7 8f 3f 4a ca 6c 3f
       0.97276205 0.90274674 1.1232761 0.9249617
0002d0 27 8f 57 3f b2 6d 6b 3f 68 f7 70 3f 6f 1d 7a 3f
       0.8420281 0.91964257 0.9412751 0.9770116
0002e0 b0 51 70 3f d7 a4 7c 3f 9e 76 5d 3f f6 c0 73 3f
       0.93874645 0.98689026 0.8650912 0.9521631
0002f0 64 95 7e 3f 6f 63 82 3f 50 a2 76 3f 84 21 69 3f
       0.994467 1.0186595 0.9634142 0.91066766
000300 6c ad 81 3f d8 ad 55 3f f8 a7 7a 3f 5c ba 7e 3f
       1.0131049 0.8346839 0.9791255 0.9950311
000310 e9 54 63 3f 8b 51 79 3f d9 33 58 3f ef c3 5f 3f
       0.8880144 0.9739005 0.84454113 0.87408346
000320 9b 6c 84 3f e9 b5 82 3f 09 13 7a 3f 3f 6d 74 3f
       1.0345644 1.0211765 0.97685295 0.95479196
000330 dc c9 6a 3f c6 94 79 3f ff 1e 89 3f c2 40 81 3f
       0.9171426 0.97492635 1.0712584 1.0097888
000340 9f 8e 77 3f 94 30 71 3f ab 27 6c 3f 2a 0f 78 3f
       0.96702 0.9421475 0.9224803 0.9689814
000350 ca 12 74 3f e9 02 7a 3f a4 b3 7b 3f 8f f8 6a 3f
       0.9534117 0.9766069 0.98320985 0.9178552
000360 a2 b3 6c 3f c2 84 61 3f 20 25 77 3f 8e 51 64 3f
       0.924616 0.880932 0.96541023 0.8918694
000370 57 6c 62 3f d9 f2 6c 3f 67 15 81 3f 74 a3 74 3f
       0.88446563 0.92558056 1.0084656 0.9556191
000380 4f 84 80 3f 86 8b 74 3f 25 7a 62 3f dc 35 7c 3f
       1.0040377 0.95525396 0.8846763 0.9851968
000390 00 af 79 3f 89 15 78 3f 45 d1 79 3f c5 88 83 3f
       0.97532654 0.9690786 0.97584945 1.0276114
0003a0 7f e1 72 3f a5 10 65 3f 6d a9 6b 3f f4 f9 72 3f
       0.9487533 0.8947852 0.920554 0.9491265
0003b0 b1 9c 72 3f 87 6b 8a 3f 25 d8 83 3f 5d d3 82 3f
       0.9477034 1.0814065 1.0300337 1.0220753
0003c0 5e 99 63 3f fd 16 6f 3f 3e b6 78 3f 03 c0 69 3f
       0.88905895 0.9339445 0.9715308 0.9130861
0003d0 29 3a 7b 3f 81 cb 66 3f eb 58 6e 3f d8 89 82 3f
       0.9813562 0.9015427 0.9310443 1.0198317
0003e0 11 c8 6a 3f 06 65 82 3f 84 80 71 3f c4 76 72 3f
       0.9171153 1.018708 0.94336724 0.9471247
0003f0 a6 25 81 3f 79 c4 61 3f a2 f4 88 3f c7 6e 67 3f
       1.0089614 0.8819042 1.0699656 0.9040341

bias f4 [256]
000000 9d 50 5c be 76 21 a1 be 71 26 c4 be 2c 7b 3e be
       -0.21515127 -0.3147084 -0.38310578 -0.18601674
000010 3c a6 8c be 3e 06 67 be 53 a5 8d be 27 93 60 be
       -0.27470577 -0.22560975 -0.27665195 -0.21931134
000020 00 33 5d be 8c e1 b8 be 88 cc 50 be 28 6b 83 be
       -0.21601486 -0.3610958 -0.20390522 -0.2566769
000030 47 cb a2 be 20 80 6b be 85 b6 a3 be ef 05 8d be
       -0.31795713 -0.22998095 -0.3197519 -0.2754359
000040 9d 15 61 be ec 96 61 be 07 31 90 be 06 1f 91 be
       -0.21980901 -0.22030228 -0.28162405 -0.28343982
000050 e9 4d 90 be 68 d3 38 be 50 dd 8b be 96 57 48 be
       -0.2818444 -0.18049395 -0.27317286 -0.19564661
000060 20 18 8a be f0 ce 8c be 20 95 bd be 95 6d a8 be
       -0.2697153 -0.2750163 -0.37027836 -0.32896104
000070 cf 68 67 be b8 b7 9f be 5c d5 b6 be 45 82 a6 be
       -0.22598575 -0.31194854 -0.35709655 -0.32521263
000080 61 f4 a2 be bc 8c 15 be 76 f3 64 be 68 24 ab be
       -0.3182707 -0.14604467 -0.22358498 -0.33426213
000090 76 53 80 be a6 9c 9a be 65 6a a4 be c8 ce b0 be
       -0.25063676 -0.30197638 -0.32112423 -0.34532762
0000a0 91 ff 9b be 30 e5 7e be fe 2c 75 be 93 09 a6 be
       -0.3046842 -0.24892116 -0.23942944 -0.3242918
0000b0 8c 34 3b be 04 44 a9 be 29 b1 1b be f8 1f c7 be
       -0.18281764 -0.33059704 -0.152043 -0.38891578
0000c0 91 50 88 be a5 10 8e be 39 db b5 be cb 17 cb be
       -0.26623967 -0.27747074 -0.35518816 -0.3966659
0000d0 b9 8d b7 be 6b 2e ab be 6c 8d c0 be b3 73 91 be
       -0.35850313 -0.33433852 -0.37607896 -0.28408584
0000e0 33 ae be be 3e 37 81 be a7 8a a4 be f4 e4 a4 be
       -0.37242278 -0.2523746 -0.32137033 -0.32205927
0000f0 17 86 a7 be b2 91 ff bd 24 1f 82 be 71 41 b1 be
       -0.3271949 -0.12478961 -0.25414383 -0.3462024
000100 34 3b b9 be a6 68 51 be c7 43 ae be fa ee d4 be
       -0.3617798 -0.20450076 -0.34036085 -0.41588575
000110 92 40 ce be fa ff 62 be 8c c0 7f be 5d 17 59 be
       -0.40283638 -0.2216796 -0.24975795 -0.21200319
000120 ad b9 8d be 5f 8f c6 be 64 06 06 be 1b 76 04 bf
       -0.27680722 -0.38781258 -0.13088375 -0.51742715
000130 f1 ab 9b be d5 71 b8 be b2 00 c4 be 2f 00 83 be
       -0.30404618 -0.36024347 -0.3828178 -0.25586078
000140 ed 40 c7 be 5d e3 ca be c4 59 5c be d6 8a c0 be
       -0.38916722 -0.3962659 -0.21518618 -0.37605923
000150 ca 18 83 be 3f fe ae be 02 81 d6 be 61 12 a3 be
       -0.2560485 -0.3417835 -0.418953 -0.3184996
000160 e3 25 a6 be 25 bd d9 be 84 0d be be cc e8 71 be
       -0.3245078 -0.42527118 -0.37119687 -0.23623961
000170 99 97 a1 be aa 62 af be 7e d8 ff bd cb 40 63 be
       -0.31560972 -0.34254962 -0.124924645 -0.22192685
000180 08 8c c7 be 22 73 98 be 2c b8 c1 be dc 92 82 be
       -0.38974023 -0.2977534 -0.37835824 -0.2550267
000190 69 38 a9 be c7 3f 8f be e2 6a 96 be 9e dd a2 be
       -0.3305085 -0.27978346 -0.2937842 -0.31809705
0001a0 74 e5 87 be b9 09 aa be 07 d8 cd be d4 5e 05 bf
       -0.26542246 -0.33210543 -0.40203878 -0.5209782
0001b0 29 41 ba be 92 44 95 be 77 d3 44 be 96 15 66 be
       -0.36377838 -0.29153877 -0.19221292 -0.22469172
0001c0 26 45 88 be 82 75 b0 be 92 76 88 be 59 59 a7 be
       -0.26615256 -0.3446465 -0.26652962 -0.32685354
0001d0 7c e8 9e be ae 35 2d be 09 5a c2 be a5 63 bd be
       -0.31036747 -0.16915008 -0.37959316 -0.36990085
0001e0 61 75 8f be 01 4d a9 be 54 01 29 be bb 58 82 be
       -0.2801924 -0.33066562 -0.16504413 -0.2545832
0001f0 9b ab b3 be aa 28 bf be 95 5c 69 be 9f f1 3b be
       -0.35091862 -0.37335712 -0.22789223 -0.1835389
000200 c7 b6 9f be cb a9 a8 be d7 9f b6 be 47 b2 4a be
       -0.31194136 -0.32942042 -0.35668823 -0.1979457
000210 c9 c1 f4 be 11 59 9c be 1e 2e a0 be 04 78 c3 be
       -0.47804096 -0.30536702 -0.31285185 -0.38177502
000220 f5 cc 8e be e0 3a b9 be a7 14 85 be 88 90 90 be
       -0.27890745 -0.3617773 -0.2599232 -0.2823527
000230 85 fc be be b8 6f bc be 91 ec 4a be 5e a2 ca be
       -0.37302032 -0.36803985 -0.19816805 -0.39577
000240 c7 73 e8 be 69 a0 90 be 93 d6 aa be 4a 74 62 be
       -0.4540083 -0.28247383 -0.33366832 -0.22114673
000250 7a e6 88 be d6 4b b3 be de b4 b2 be 42 d3 c2 be
       -0.2673834 -0.35018796 -0.34903616 -0.38051802
000260 54 1b 8b be 1f e0 88 be 43 30 38 be 35 46 8c be
       -0.27169287 -0.2673349 -0.1798716 -0.27397314
000270 20 75 37 be 9a fa c0 be 31 75 a7 be 80 86 76 be
       -0.17915773 -0.37691194 -0.32706597 -0.24074745
000280 dc a4 e2 be dd b2 b0 be cd a9 1e be 60 59 26 be
       -0.44266403 -0.34511462 -0.15494461 -0.16245031
000290 e2 19 8b be 3f e1 e9 be 18 a8 aa be 41 d0 b8 be
       -0.27168185 -0.45679662 -0.3333137 -0.36096385
0002a0 0f 95 bd be 74 1b f0 be 74 08 85 be 14 7a b2 be
       -0.37027785 -0.46895945 -0.25983012 -0.34858763
0002b0 76 94 a0 be 8f 82 b9 be 44 3f d6 be cf c4 b4 be
       -0.31363267 -0.3623242 -0.41845143 -0.35306403
0002c0 3f b0 cc be b2 2d 83 be 60 6c f9 be 4a 94 9b be
       -0.39978215 -0.256208 -0.48715496 -0.30386573
0002d0 17 90 9c be c2 76 79 be ae cf 99 be 13 13 c4 be
       -0.30578682 -0.24361709 -0.3004126 -0.38295802
0002e0 17 76 7c be fa 50 97 be 8c d9 95 be 5c 95 82 be
       -0.24654423 -0.29553968 -0.29267538 -0.25504577
0002f0 b9 38 91 be d2 55 7f be 2e 99 62 be eb b3 3d be
       -0.28363588 -0.24935082 -0.22128746 -0.18525665
000300 f8 11 31 be 75 b5 49 be 12 e6 aa be f4 e9 d7 be
       -0.17292011 -0.19698127 -0.33378655 -0.4217068
000310 82 26 79 be 44 9a c7 be 63 b4 94 be 40 f2 8e be
       -0.24331096 -0.38984883 -0.29043874 -0.27919197
000320 f2 ce 95 be 89 08 58 be 02 80 93 be e6 6b 6e be
       -0.2925945 -0.21097006 -0.288086 -0.23283347
000330 45 11 d8 be 56 d8 c2 be b4 6a 96 be 6b 17 99 be
       -0.42200676 -0.38055676 -0.29378283 -0.2990068
000340 89 e6 d0 be 49 39 83 be 75 2a b0 be 9a ed ab be
       -0.40800884 -0.25629643 -0.34407392 -0.33579713
000350 36 37 f2 be 95 fe 42 be 2b 34 a4 be 76 1d a8 be
       -0.47307748 -0.19042428 -0.3207105 -0.32834977
000360 cb 4e a5 be 84 19 7a be 21 67 a1 be 26 7d db be
       -0.32286677 -0.24423796 -0.31523994 -0.42868918
000370 2c 13 7f be b3 4f 8d be 5c 59 9b be dc 34 75 be
       -0.24909657 -0.27599868 -0.30341613 -0.23945946
000380 3b b9 e7 be 6d b2 e3 be 70 d4 7e be 9e 5c cb be
       -0.45258507 -0.44472066 -0.24885726 -0.397191
000390 9f 3e d2 be 56 b6 84 be d6 f2 b8 be 71 a1 ff be
       -0.410634 -0.2592036 -0.3612277 -0.49927858
0003a0 b3 80 b2 be d3 c0 b7 be 34 cb 99 be 55 b7 a4 be
       -0.34863815 -0.358893 -0.30037844 -0.3217112
0003b0 61 3e cc be fa 60 08 bf c8 6f 3c be 15 07 ad be
       -0.3989134 -0.53272974 -0.18402016 -0.33794466
0003c0 6f c1 aa be 0b c9 46 be 5d af a1 be d3 96 8f be
       -0.33350703 -0.1941263 -0.31579104 -0.28044757
0003d0 d0 82 37 be 89 0f b4 be 18 03 b6 be b1 b7 c0 be
       -0.17920995 -0.35168102 -0.35549235 -0.37640145
0003e0 21 95 81 be 05 2c c1 be cb f4 cd be 00 5a 30 be
       -0.2530909 -0.37728897 -0.40225825 -0.17221832
0003f0 fe a0 b0 be ca 1b 64 be 4b 65 6e be 60 1f a1 be
       -0.34497827 -0.22276226 -0.23280828 -0.3146925

running_mean f4 [256]
000000 1b 1a 45 3f 66 92 73 3f 95 7c 8c be 5a 52 48 bf
       0.7699296 0.9514526 -0.274388 -0.7825066
000010 14 06 12 3f 62 61 fb be 9e 0c d7 bf 38 bd 02 40
       0.57040524 -0.49097735 -1.6800725 2.042799
000020 56 b5 fa be 10 93 60 c0 95 69 77 bf 0b aa c4 3d
       -0.48966473 -3.508976 -0.9664548 0.096027456
000030 60 11 12 bf ee bd 2a bd e4 58 b2 bd c6 e7 d9 3e
       -0.5705776 -0.041685037 -0.08708361 0.42559642
000040 96 b4 e6 3f c5 4b be be 93 26 f1 3d 59 07 73 3f
       1.802386 -0.37167183 0.117749356 0.94933087
000050 d9 c0 79 3f df 63 af 3f 56 4d b2 bf 4b b6 9e bf
       0.9755989 1.3702353 -1.3929851 -1.2399381
000060 01 0e ff bf a1 e0 df 3f 26 cc e9 3e 34 24 9e 3f
       -1.9926149 1.7490426 0.45663565 1.2354798
000070 6e e0 aa bf 91 95 50 3f 08 bc 8c be 97 4a 28 c0
       -1.334974 0.8147822 -0.27487206 -2.6295526
000080 ec 78 82 3d 5c 9a 13 3e 2c b1 ae bf 11 15 ea 3f
       0.0637072 0.14414352 -1.3647819 1.8287679
000090 c6 aa 80 bf e5 38 0f bf c5 9b 39 c0 0f d7 79 bf
       -1.0052116 -0.5594619 -2.9001324 -0.9759378
0000a0 b6 42 5a 3e 76 c4 1b be ce fb 94 bf 3b 4e b5 bf
       0.2131451 -0.15211663 -1.1639345 -1.4164499
0000b0 af 6e ba 3f 73 ee 15 3f ea 6d a6 3f 29 8c 2b 3f
       1.4565028 0.5856697 1.3002293 0.6701074
0000c0 fd 0d d8 bf 65 9e cf 3f ec a9 9c 3f 0a 92 5b c0
       -1.6879269 1.6220213 1.2239356 -3.4307885
0000d0 1d 76 cb be 62 83 d0 3d 6f 1f b9 bf 75 12 93 bc
       -0.3973855 0.10181309 -1.4462718 -0.017953137
0000e0 dd e7 1a c0 aa bd 16 3f 10 4f 53 3f db 50 3c bf
       -2.4204018 0.58883154 0.82542515 -0.73560876
0000f0 1f 3b d4 3f 46 b9 d1 3e e0 1e 5f 3e a9 bd 71 be
       1.6580542 0.40961665 0.21789122 -0.23607506
000100 25 0d 25 bf de 6a 7c bf db db 05 bf e9 b0 c9 bf
       -0.6447318 -0.98600566 -0.522886 -1.5757114
000110 fe 65 b9 bf d1 47 5d 3f 85 63 38 3e d0 ee e9 bd
       -1.448425 0.8643771 0.18006714 -0.11422503
000120 9f a5 8b 3f 58 67 c4 3e df ae 72 40 22 18 86 c0
       1.0909919 0.38360095 3.7919233 -4.190446
000130 b3 46 11 bf 97 9f 7e bf f1 92 4d c0 cc 6a f7 bf
       -0.56748503 -0.99462265 -3.2120936 -1.9329467
000140 3d c3 c7 bf 21 b2 af bf 99 2a c5 bd 07 79 0f 40
       -1.5606457 -1.3726236 -0.096272655 2.241762
000150 54 e9 5b 3f 36 91 a1 3f 12 6b 99 bf 8e 54 05 bf
       0.85902905 1.262244 -1.19858 -0.52082145
000160 b9 6b bb bf 37 80 1e c0 fb 55 7f 3f c1 f8 59 bf
       -1.4642249 -2.4765756 0.9974057 -0.85145193
000170 24 71 55 c0 d7 da f0 3e 05 85 15 3f 81 72 8f 3f
       -3.3350306 0.47041962 0.58406097 1.1206819
000180 9a 6d b4 3f 1b 94 ab 3e 96 8a fa 3e f5 73 3c bf
       1.4095948 0.33511433 0.48933858 -0.73614436
000190 aa e6 02 c0 3d 70 30 40 4d be a9 3b c5 76 3f bf
       -2.0453286 2.7568505 0.0051801563 -0.747906
0001a0 e2 39 ed 3f 03 4d 31 c0 49 0f 8e 3f b5 5d c3 bf
       1.853329 -2.7703254 1.1098415 -1.5262972
0001b0 be d1 8d c0 e8 a7 88 3e 68 da 3a bf 6f a2 82 40
       -4.4318533 0.26690602 -0.7298951 4.0823283
0001c0 d6 6a 2e c0 39 cd 2a c0 b5 30 e2 3e 51 b6 8c bf
       -2.7252707 -2.6687758 0.44177786 -1.0993139
0001d0 2e 0f 6b c0 9f b0 f7 3e 72 44 24 3f 7b fd 2a 40
       -3.6728015 0.4837694 0.6416694 2.6717212
0001e0 f1 db 88 40 8d 45 6a bd bc 1d 2a 3e 2d 89 42 3f
       4.2768483 -0.057195235 0.16612905 0.75990564
0001f0 43 ab 70 bf 9d fd 4c 3f cd 5b 9b 3f 2d 4f 61 bd
       -0.94011325 0.80074483 1.213739 -0.05500715
000200 9a e6 70 bd e4 fa 42 3e 01 20 1c bf 3b 62 ea be
       -0.05881367 0.1904102 -0.60986334 -0.4577807
000210 f6 e7 3d c0 09 9e b8 bf 20 0f f6 bf b6 1e 27 3e
       -2.9672828 -1.4423229 -1.9223366 0.16320309
000220 c3 30 88 bf 2c ba 06 c0 c7 35 02 40 ba 7d eb bf
       -1.0639881 -2.105113 2.0345323 -1.8397744
000230 ae 8b db 3c 28 e3 34 3c 15 23 b7 bf 37 f9 fc 3d
       0.026800003 0.011040486 -1.4307581 0.123522215
000240 16 14 2e c0 d6 5f d8 3f 43 ac 09 c0 ea a9 5d bf
       -2.719976 1.6904247 -2.151139 -0.86587393
000250 e4 1b 63 bf a6 5a 64 3d 8d c5 f1 bf 60 ae d7 bf
       -0.8871443 0.05575051 -1.8888413 -1.685009
000260 39 fd 3d 3f ea cd fd bd 39 5b ff be 8f 18 83 c0
       0.7421451 -0.123927906 -0.49874285 -4.096748
000270 06 dd 83 bf 17 e8 eb be 67 78 09 40 a7 b0 91 bf
       -1.0301826 -0.46075508 2.1479738 -1.1382035
000280 55 28 7f be 2b 3d 8d 3f 6e 3a 96 c0 aa 68 e4 3f
       -0.24917729 1.1034292 -4.6946325 1.7844441
000290 a3 68 d3 3f f2 cc 27 c0 75 4b 00 c0 e7 87 ee 3e
       1.6516308 -2.6218839 -2.0046055 0.4658806
0002a0 7f 1d 2e 3f 5a b9 10 c0 cd e4 26 bc f3 60 8a bf
       0.6801376 -2.261313 -0.010186386 -1.0810837
0002b0 be 05 40 40 c9 97 c3 3f 64 66 54 3e a5 48 45 3f
       3.0003505 1.5280696 0.20742184 0.7706397
0002c0 60 2a be bf c5 31 cf 3f a1 22 b2 bf d2 9e 2d be
       -1.4856682 1.6187063 -1.3916818 -0.16955116
0002d0 b6 9a 67 3f 04 54 a8 bf 7c 53 2b bf 16 69 39 c0
       0.90470445 -1.315064 -0.6692426 -2.897039
0002e0 8a ec 82 40 d0 e7 95 3f 73 94 3d 40 b2 75 a7 3f
       4.0913744 1.1711369 2.9621856 1.3082793
0002f0 e3 ac ac 3e fa 64 0c 40 a0 e0 d3 be bc 23 80 bf
       0.33725652 2.1936631 -0.41382313 -1.0010905
000300 f8 43 ca bf b7 0b f1 be 1c 76 4e 40 d0 63 17 c0
       -1.5801992 -0.4707925 3.2259588 -2.365467
000310 bc 79 e4 3e f1 41 ac bf c3 b6 c0 3e 70 eb 1a bf
       0.44624126 -1.3457624 0.37639436 -0.605155
000320 dc 31 75 be cc ea 8d be 9c 37 b1 bf 35 4c cd bf
       -0.23944801 -0.27718198 -1.3845096 -1.6038882
000330 d2 6b 6f bf 6b 80 09 c0 3e db a8 bf d1 33 6b 3e
       -0.93523896 -2.148463 -1.3191907 0.22968985
000340 37 17 c8 be 7b a3 1c bf 62 64 34 bf 6d ee 9f bf
       -0.39080212 -0.6118695 -0.7046567 -1.2494637
000350 e8 62 a4 bf 58 66 2f bf f6 67 24 bf e8 db 22 40
       -1.2842684 -0.6851554 -0.6422113 2.544672
000360 05 3c 3f 3d 71 12 82 bf 67 e9 d3 bf 35 08 39 bf
       0.0466881 -1.0161878 -1.6555604 -0.7227815
000370 fa 99 f7 bf 64 4b 6f bf 1a 11 19 40 75 d5 e6 3f
       -1.9343865 -0.9347441 2.3916688 1.8033892
000380 88 b9 f6 bf 2f 74 18 bc 80 e9 c3 bf ef f7 59 3f
       -1.927537 -0.009305044 -1.5305634 0.8514394
000390 c1 d2 4a c0 e4 47 4a be a8 2a 03 c0 2b bb 3b c0
       -3.1691134 -0.19753987 -2.0494785 -2.9332988
0003a0 50 46 9b bf 37 79 ce bf 36 83 77 3d 63 94 86 3f
       -1.2130833 -1.6130742 0.060427867 1.0514034
0003b0 b8 62 c0 bf d5 d0 c4 bf ca 31 2a 3f f4 b2 10 c0
       -1.5030127 -1.537623 0.6648222 -2.2609224
0003c0 bc c0 88 3e 57 6a 08 bf 3a c8 16 c0 fd 91 57 be
       0.26709545 -0.5328726 -2.3559709 -0.21051784
0003d0 9f dd 00 bf 11 33 cf be 2f b1 56 c0 94 97 ce bf
       -0.50338167 -0.40468648 -3.3545644 -1.6140008
0003e0 c6 ce e1 bf 39 6f 6d c0 39 aa b8 3d 96 c2 41 3e
       -1.7641227 -3.7099135 0.090168424 0.18921885
0003f0 ee e9 2a c0 41 b2 a7 bf 6c 61 74 3f ac bc b8 be
       -2.670528 -1.3101274 0.95461154 -0.36081445

running_var f4 [256]
000000 21 a3 53 3f f0 9b 58 40 7d 53 15 3f a0 31 13 40
       0.8267079 3.3845177 0.5833052 2.2999039
000010 7c 7b 62 3f c4 2a ff 3f cf 27 8e 3f c4 ff fc 3f
       0.8846967 1.9934926 1.1105899 1.9765553
000020 c0 98 f6 3e f9 4f d7 3f be f1 78 3f 7b 5c 53 3f
       0.48163414 1.6821281 0.9724387 0.8256299
000030 83 27 70 3f 12 ba e3 3f 6a 7b 65 40 3e 13 40 3f
       0.9381029 1.7791159 3.5856576 0.7502936
000040 a9 be 1e 3f 4e b5 5f 3f 0f 40 2e 3f c3 47 69 3f
       0.62009674 0.87386024 0.68066496 0.91125125
000050 d7 e5 3f 3f 96 52 b2 3f d3 e9 aa 3f 91 d9 ef 3e
       0.7496008 1.3931453 1.3352607 0.46845677
000060 ce b8 33 40 bd 43 c7 3f 5d bc 2c 3f fe 7e 77 3e
       2.8081546 1.5567547 0.6747492 0.24169537
000070 54 c2 c0 3e 32 b9 4f 3f 73 0f 44 3f 15 40 d3 3e
       0.3764826 0.8114196 0.76586074 0.41259828
000080 8a 59 04 3f 49 ce d1 3f a4 55 a5 3f 39 2a f8 3e
       0.51699126 1.6391078 1.291676 0.48469713
000090 be 06 59 3f 02 e8 42 3f 86 08 2a 3f 60 c3 40 3f
       0.8477591 0.76135266 0.66419256 0.7529812
0000a0 6d a1 d8 3e e7 55 fb 3f b7 07 65 3f 81 60 8d 3f
       0.42310658 1.963559 0.89464897 1.1045076
0000b0 34 2d 96 3f 23 1c 78 3f d5 62 6c 3f ad d6 87 3f
       1.1732545 0.96917933 0.92338306 1.0612389
0000c0 4c e0 c9 3f 52 0b 38 3f 5e 06 48 3f 4c 3f 41 3f
       1.5771575 0.71892273 0.78134716 0.7548721
0000d0 d7 b7 bd 3f 94 99 ec 3f b9 04 61 3f 8f e8 e1 3f
       1.4821728 1.8484368 0.8789783 1.7649096
0000e0 c8 6b c2 3e 95 fa d0 3e 9d 33 14 3f 30 e4 8a 3f
       0.37972856 0.4081618 0.57891256 1.0850887
0000f0 f3 13 08 3f 90 10 32 3f b1 34 a7 3f 69 8e 79 40
       0.5315544 0.6955652 1.3062955 3.899317
000100 f4 e5 25 3f f1 48 38 40 ca f8 15 3f 53 b2 f1 3e
       0.64804006 2.879452 0.58582747 0.47206363
000110 7e d0 0e 40 1f 9b e2 3e 73 6a b4 3f 60 8d 2c 3f
       2.2314754 0.44258973 1.4094986 0.6740322
000120 89 5b 93 3f 0a 7b 6a 3f 4d 1a 53 40 89 aa 69 3f
       1.1512309 0.9159399 3.2984803 0.9127584
000130 fd ab 87 3e 66 b5 2e 3f d4 03 35 3f 6f b4 b5 3f
       0.26498404 0.6824554 0.70708966 1.4195689
000140 44 35 02 3f d8 04 6b 3f ca 4a 29 3f 47 d2 41 3f
       0.50862527 0.91804266 0.66129744 0.7571148
000150 01 8e ca 3f 34 31 92 3f cd b2 d1 3e b3 ac f0 3e
       1.5824586 1.1421266 0.40956727 0.4700676
000160 6c fe 82 3f 7d c3 29 3f 7f da c6 3f 04 b7 99 3f
       1.0233893 0.66313916 1.553543 1.2008977
000170 38 d7 f8 3e 5c 5c 07 3f 97 f9 8e 3f 82 04 2b 3f
       0.486017 0.52875304 1.1169919 0.66803753
000180 83 5e c0 3f 76 ab d1 3e 85 af 9c 3f d4 0c 0f 40
       1.5028843 0.40951127 1.2241064 2.235158
000190 66 c5 8d 40 f2 93 79 40 28 36 4f 3f 58 71 41 3f
       4.4303465 3.8996549 0.8094201 0.75563574
0001a0 bd 79 ab 3f 69 ae 86 3f 36 46 31 3f 36 88 3b 3f
       1.3396527 1.0521976 0.6924776 0.73254716
0001b0 92 8e 84 40 01 4c b5 3f fe ad ac 3f 6a aa 05 40
       4.1424036 1.416382 1.3490598 2.0885262
0001c0 b0 cb e5 3f 9f 53 00 3f 99 54 80 3f e0 99 84 40
       1.7952785 0.50127596 1.0025817 4.1437836
0001d0 83 5d 25 3f ae b1 95 3f 00 07 ae 3f 5d 6f 5d 3f
       0.6459581 1.1694849 1.3595886 0.8649805
0001e0 58 1b ff 3e b5 b1 09 3f 5f 71 a7 3f 54 58 56 3f
       0.4982555 0.53786784 1.3081473 0.8372853
0001f0 2c 99 84 40 b8 b1 09 40 13 db 21 3f 47 bd 69 3f
       4.1436977 2.151472 0.63224906 0.9130444
000200 f0 5b 29 3f 35 ca 36 3f 96 41 b8 3e 96 0a 49 3f
       0.6615591 0.71402293 0.35987538 0.7853178
000210 39 0f 88 3f db 45 ea 3e ca 07 2b 40 71 e8 43 3f
       1.0629646 0.4575642 2.6723504 0.7652655
000220 16 05 54 3f c6 0f 97 3f 92 bf 65 3f 79 f7 5f 3f
       0.8282026 1.1801689 0.8974544 0.8748699
000230 58 15 94 3f dc 4d 0b 3f 3a 63 85 3f 3f 96 7a 3f
       1.1569014 0.5441568 1.0420907 0.9788551
000240 b6 16 50 3f a3 5c 16 3f 49 6d fb 3f 61 c9 15 40
       0.81284654 0.587351 1.9642726 2.3404162
000250 7d e8 f3 3e 35 a3 32 3f 63 0b f0 3f 2e f5 db 3e
       0.47638312 0.69780284 1.8753475 0.42960495
000260 6d df f7 3e b3 f3 b9 3f ac 5f b5 3e 03 10 74 3f
       0.48412648 1.4527496 0.35424554 0.9533693
000270 dd c1 c8 3e ad b9 d1 3e 4c 2b 89 3f df a6 32 3f
       0.39210406 0.40961972 1.0716338 0.69785875
000280 fd 04 c7 3e 09 54 ee 3e 42 92 bb 3e f9 65 81 3f
       0.38870993 0.4654849 0.36635023 1.0109245
000290 5d 05 c3 3f 54 68 6d 3f 80 e4 45 3f 81 6f 7f 40
       1.5236012 0.9273732 0.7730179 3.9911807
0002a0 47 0f 40 3f df 51 62 3f 1f 10 66 3f cb e5 00 3f
       0.7502331 0.88406175 0.8986835 0.50350636
0002b0 8a a1 3a 3f f4 49 4c 3f e0 2f 19 3f a2 19 0e 3f
       0.7290274 0.79800344 0.59838676 0.5550786
0002c0 e4 28 c2 3e 04 67 7e 3f a2 05 35 3f e3 0b fa 3f
       0.37921822 0.9937594 0.7071172 1.9534878
0002d0 a4 8c 95 3f 13 f6 d0 3f 4f 83 02 40 2f 0c ee 3e
       1.1683545 1.6325096 2.0392644 0.4649367
0002e0 02 37 fe 3e 30 ae 33 3f cc 02 95 3f ac de 69 3f
       0.49651343 0.70187664 1.1641479 0.91355395
0002f0 90 a2 1a 3f 5a 0e d7 3e 9f 93 f2 3e 7c dc 93 3f
       0.604043 0.42003137 0.4737825 1.1551661
000300 64 d6 bc 3f c5 70 6c 3f 4b 87 6c 3f ee a1 08 40
       1.4752927 0.9235957 0.9239394 2.1348834
000310 37 91 a5 3f 0b dc 38 40 4a 72 70 3f 30 b0 2c 3f
       1.2934941 2.8884304 0.9392439 0.6745634
000320 4a b5 1f 3f c4 13 c3 3e 53 5e a9 40 da be 14 3f
       0.62386 0.38101017 5.292764 0.58103716
000330 71 2f da 3e b0 d3 c1 3f 56 49 8e 40 21 a1 9f 3f
       0.4261432 1.5142727 4.446452 1.2471048
000340 c9 82 bb 3e 60 a9 84 3f 8b a1 5a 3f ab 9a 1e 3f
       0.3662322 1.0364189 0.85402745 0.61954755
000350 9d 39 36 3f 0a ef 0d 3f 3b 41 45 40 de 4b 26 3f
       0.7118166 0.5544287 3.0821064 0.64959514
000360 e8 c5 ed 3e fb 49 e9 3f 34 b1 b8 3e ee d0 0b 40
       0.46440053 1.8225702 0.36072695 2.184627
000370 7c 52 fc 3e 14 89 76 3f 7f 40 92 3f 9a 39 92 3f
       0.4928168 0.96302915 1.1425933 1.1423829
000380 b0 a2 9c 3f fc ff 59 40 3b 2e 4a 3f 53 15 53 3f
       1.2237148 3.406249 0.7897679 0.82454413
000390 5c 5b a3 3f 5e 13 ed 3e d0 14 8b 3f 6c 4b 3e 40
       1.2762256 0.46303838 1.0865726 2.9733534
0003a0 ae 2a d6 3f d2 6c 3a 40 88 92 76 3f 09 ba f8 3e
       1.6731775 2.9128919 0.9631734 0.48579434
0003b0 0f 25 3a 40 49 99 dc 3f e2 53 04 3f 19 1e 8c 40
       2.9085119 1.7234279 0.51690495 4.378674
0003c0 b5 58 f2 3e 43 4b 7f 3f a3 89 66 40 2d 5a 62 3f
       0.47333303 0.99724215 3.6021507 0.8841885
0003d0 95 05 83 3f 9e 02 31 3f 4d c8 1e 40 29 f8 42 40
       1.0236079 0.6914462 2.4809754 3.0463965
0003e0 f8 4b 57 3f 6d 62 79 40 c5 f4 1a 40 17 e5 47 3f
       0.84100294 3.8966324 2.4211895 0.7808394
0003f0 02 c1 07 3f 04 89 78 3f 1b 0f 6f 3f 3b 40 75 3f
       0.5302888 0.9708407 0.93382424 0.9580113

weight f4 [256]
000000 b2 66 c5 3f b1 42 b3 3f 9b 43 b1 3f 3c d6 c9 3f
       1.5421965 1.4004728 1.3848757 1.5768504
000010 86 8a c1 3f 67 5a be 3f 5a f1 c3 3f 7e 4c 9d 3f
       1.5120399 1.4871339 1.530803 1.2288969
000020 b3 aa b4 3f 1e 6f dd 3f 15 27 a9 3f 2f 09 bc 3f
       1.4114593 1.7299535 1.3215052 1.4690303
000030 e7 85 bf 3f 4b 2e aa 3f c0 4b cc 3f 82 4e bf 3f
       1.4962739 1.3295377 1.5960617 1.4945834
000040 f3 61 c6 3f e0 6e a5 3f e5 0f bc 3f 54 c4 bb 3f
       1.5498642 1.2924461 1.4692351 1.466929
000050 7b b4 c8 3f 51 5c ad 3f c7 33 a3 3f 77 e7 b9 3f
       1.5680078 1.3543798 1.2750176 1.4523762
000060 bc 7c c5 3f 04 7a bd 3f 78 4d bb 3f 89 43 cc 3f
       1.5428691 1.4802861 1.4633017 1.595811
000070 7e 2e ae 3f db 45 bb 3f d5 5e d2 3f ea 22 d9 3f
       1.3607938 1.4630693 1.643519 1.696378
000080 5a b0 b5 3f 6a 68 d8 3f 90 34 ca 3f dd 99 be 3f
       1.4194443 1.6906865 1.5797291 1.4890705
000090 fa 8c cd 3f 98 aa a9 3f f4 53 b6 3f b2 de c2 3f
       1.6058648 1.3255186 1.424437 1.5224211
0000a0 37 bc be 3f 7c 5a ba 3f 94 a4 bc 3f e4 10 bf 3f
       1.4901189 1.4558864 1.4737725 1.492703
0000b0 20 b5 c9 3f a1 e5 aa 3f 8e 77 a8 3f e6 b2 bb 3f
       1.57584 1.3351327 1.3161485 1.466397
0000c0 5a 10 b6 3f fd 9d b9 3f ce 69 b9 3f 09 1c bf 3f
       1.422374 1.4501339 1.4485414 1.4930431
0000d0 16 e6 c6 3f 7c d5 b7 3f 4b ea a8 3f 5e 4a c0 3f
       1.5538967 1.4362025 1.31965 1.5022695
0000e0 5b 1a af 3f e6 da ac 3f 42 15 c2 3f 14 c6 b5 3f
       1.3679918 1.3504303 1.5162737 1.4201074
0000f0 bf 8e ba 3f bc 78 c6 3f cd 74 cc 3f 44 a9 ac 3f
       1.4574813 1.5505595 1.5973145 1.3489156
000100 db ed cb 3f 42 57 cc 3f 58 16 be 3f 87 68 bc 3f
       1.5931963 1.5964129 1.4850569 1.4719399
000110 41 60 b4 3f 72 8b c2 3f ac 4c cf 3f d7 14 c0 3f
       1.4091874 1.5198805 1.6195273 1.500636
000120 0c 05 d8 3f d1 30 c1 3f 7d 52 b3 3f 02 2e ac 3f
       1.687654 1.5093023 1.4009548 1.345154
000130 6e 18 b7 3f 9a 66 cb 3f 35 55 c0 3f 1b 0d b9 3f
       1.430433 1.5890687 1.5026003 1.4457124
000140 25 1e bf 3f 0a 90 b2 3f b5 47 c4 3f 9a 1a be 3f
       1.4931074 1.3950207 1.5334383 1.4851868
000150 14 e4 c7 3f a3 9c b3 3f 4a b1 cd 3f 73 bd c9 3f
       1.5616479 1.4032177 1.6069729 1.576094
000160 58 91 bd 3f 75 a5 b7 3f 34 3d b1 3f e7 59 c9 3f
       1.480998 1.4347368 1.3846803 1.5730561
000170 5c 99 e0 3f 82 9a c5 3f 69 d6 a9 3f fd fd c6 3f
       1.7546802 1.5437777 1.3268558 1.5546261
000180 6f 1b e2 3f a2 ab bb 3f 9f 78 b7 3f 9c d6 b0 3f
       1.7664622 1.4661753 1.4333686 1.3815494
000190 e5 e8 c0 3f 50 ca ca 3f 1b 82 d3 3f 6c 33 c8 3f
       1.5071074 1.5842991 1.652408 1.5640693
0001a0 8f 73 fc 3f 45 1c ad 3f 5a 89 c0 3f 41 3f bd 3f
       1.9722766 1.3524252 1.5041916 1.4784929
0001b0 ef 7a b2 3f 54 cf cb 3f 01 57 c5 3f ff e6 a8 3f
       1.3943766 1.5922647 1.5417176 1.3195494
0001c0 80 6c bd 3f 9a 6b dc 3f 3c 14 ce 3f de b9 c6 3f
       1.4798737 1.7220337 1.6099925 1.5525472
0001d0 98 6e b8 3f 6b c6 b3 3f b4 14 c9 3f 70 9d b8 3f
       1.440875 1.4044927 1.5709443 1.4423046
0001e0 a7 bd c6 3f 21 2d a4 3f 34 05 a1 3f a9 db ba 3f
       1.5526627 1.2826272 1.2579713 1.4598285
0001f0 9e 1f ba 3f 97 26 b5 3f d7 50 b6 3f 59 49 cc 3f
       1.4540899 1.4152402 1.424342 1.5959884
000200 c0 ca e1 3f 4c 2d b7 3f c2 bc cf 3f 25 d9 b6 3f
       1.7639999 1.4310699 1.6229479 1.4285017
000210 c5 38 e2 3f 72 73 af 3f 5a e6 c2 3f 01 f9 de 3f
       1.7673575 1.3707106 1.5226548 1.741974
000220 a5 a6 bc 3f b6 bc a8 3f c6 c1 bd 3f 15 bc bc 3f
       1.4738356 1.318259 1.482476 1.4744898
000230 a0 c5 a6 3f 22 f1 ba 3f d9 32 bf 3f 78 ef d0 3f
       1.302906 1.4604838 1.4937392 1.632308
000240 97 6b bb 3f 38 0f d5 3f 46 ee af 3f 37 2d ac 3f
       1.4642209 1.6645269 1.374459 1.3451298
000250 60 85 a4 3f e2 1c a8 3f 6a 30 ae 3f b7 6d c5 3f
       1.2853203 1.3133814 1.3608525 1.5424107
000260 01 16 c0 3f 5f c8 b4 3f ec e2 a2 3f 5b 99 a9 3f
       1.5006715 1.4123648 1.2725501 1.3249925
000270 ca 47 b4 3f b6 36 c3 3f 3c c6 ce 3f 74 cc b4 3f
       1.4084408 1.5251071 1.6154246 1.4124894
000280 0c 7e b1 3f 0e 4e ac 3f 6b 99 c7 3f 39 a9 be 3f
       1.3866591 1.346132 1.5593694 1.4895393
000290 ec 4c b7 3f 55 7a c8 3f 79 c4 dc 3f ce a7 b9 3f
       1.432035 1.5662333 1.7247459 1.4504335
0002a0 6f 66 b2 3f 18 9b be 3f b4 97 ac 3f d0 5c d5 3f
       1.393751 1.4891081 1.3483796 1.6668949
0002b0 40 79 ae 3f 80 f1 b1 3f f5 5c bd 3f 57 4d bd 3f
       1.3630753 1.3901825 1.4793993 1.4789227
0002c0 5f a1 c0 3f 0d b7 bd 3f 9c d7 b5 3f 47 da c3 3f
       1.5049247 1.4821488 1.4206424 1.5300988
0002d0 fb 77 b8 3f 2b df bb 3f c3 c4 b5 3f 85 33 b9 3f
       1.4411615 1.467748 1.4200672 1.4468848
0002e0 98 f7 d5 3f cd c9 b5 3f 01 b1 b1 3f b1 7b bf 3f
       1.6716185 1.420221 1.3882142 1.4959623
0002f0 da d4 c2 3f 58 a4 dd 3f 66 6d ba 3f 63 40 ba 3f
       1.5221207 1.7315779 1.4564636 1.4550899
000300 68 d6 cb 3f 9d 50 ab 3f a4 f7 cd 3f 57 37 b3 3f
       1.5924807 1.3383976 1.6091199 1.4001263
000310 e8 55 c3 3f ab 9e ae 3f 0a 18 be 3f 51 d0 c0 3f
       1.5260592 1.3642172 1.4851086 1.5063573
000320 be 85 b1 3f 0d 90 d4 3f 33 f2 a8 3f 95 ce f6 3f
       1.386894 1.6606461 1.3198913 1.9281794
000330 50 b9 b8 3f 80 e3 b4 3f a8 c3 ad 3f a4 dc a7 3f
       1.4431553 1.4131927 1.3575335 1.3114209
000340 4c da c0 3f 30 57 bd 3f 16 73 bb 3f e1 a1 c7 3f
       1.5066619 1.4792233 1.4644496 1.5596277
000350 bd e5 cf 3f ea 4c be 3f 75 b5 f1 3f ee 94 9f 3f
       1.6241986 1.4867222 1.8883501 1.2467325
000360 75 1b ee 3f 58 68 c3 3f c4 07 b2 3f 69 34 ea 3f
       1.8602129 1.5266218 1.390862 1.8297244
000370 31 15 e0 3f 32 4b ae 3f eb bf b4 3f 8e a8 c5 3f
       1.7506467 1.3616698 1.4121069 1.5442064
000380 de c1 c4 3f d5 a1 b7 3f e8 95 b7 3f f1 cf b8 3f
       1.5371664 1.4346262 1.4342623 1.4438459
000390 c0 4b cd 3f b2 37 ac 3f 5c 42 c7 3f 0e f5 9c 3f
       1.6038742 1.3454497 1.5567126 1.2262285
0003a0 91 d2 b0 3f a4 25 aa 3f b9 84 d0 3f c2 05 ac 3f
       1.381426 1.3292737 1.6290504 1.3439257
0003b0 b0 7a b7 3f 74 ef b5 3f 6d 80 cb 3f af 80 b5 3f
       1.4334316 1.42137 1.5898567 1.4179896
0003c0 28 bf a9 3f 57 7a aa 3f 19 bf ef 3f 8c 20 c1 3f
       1.3261461 1.3318585 1.8730193 1.5088058
0003d0 a5 c5 c1 3f 3a 25 b7 3f 3b 60 d3 3f ec 0a e0 3f
       1.5138441 1.4308236 1.6513742 1.7503333
0003e0 23 eb bf 3f 53 46 bc 3f ac 08 cb 3f 17 0a c6 3f
       1.4993633 1.4708961 1.5862021 1.5471829
0003f0 d9 66 aa 3f 5d b9 c0 3f cb 4f cd 3f 30 b3 b1 3f
       1.3312637 1.5056568 1.6039976 1.3882809

bias f4 [256]
000000 46 38 8d 3d b4 e5 03 3e c1 be d4 3b 36 2e 26 3e
       0.06895499 0.12880594 0.006492466 0.16228566
000010 b3 63 43 3e b2 ca 0e 3e 89 12 66 3e 45 a6 03 3d
       0.19081001 0.1394451 0.22468008 0.03214099
000020 b1 9d 42 3d fc 29 96 3e c8 a9 be 3d 0d 64 0c 3e
       0.047513667 0.29328907 0.09309727 0.13710041
000030 d1 3e 15 3e 9f d4 d6 3c cc 6b 3f 3e 92 29 e4 3d
       0.14574744 0.026224433 0.18693465 0.111407414
000040 c8 a9 51 3e 6e ba 0b bc 75 dc 6f 3d 8c 98 6c 3d
       0.20474923 -0.008528335 0.058559854 0.057762668
000050 34 66 11 3e 66 b7 f0 3d 30 91 1b bd 64 a5 50 3e
       0.14199144 0.117537305 -0.03798026 0.20375592
000060 91 a3 5f 3e cd 22 e3 3d 53 a3 d7 3d 74 9e 5e 3e
       0.2183974 0.11090622 0.105291985 0.21740133
000070 b1 57 15 3e 15 09 30 3e a9 a2 b4 3e 7d d3 75 3e
       0.14584233 0.17190965 0.3528035 0.24006458
000080 e1 d3 81 3e 46 59 11 3e ee 57 93 3e da 1f 93 3e
       0.25356963 0.14194211 0.28778023 0.28735238
000090 1d 8c 51 3e d4 ed 34 3d 7d b2 cc 3d 31 be 2c 3e
       0.20463605 0.044172123 0.099949814 0.16869427
0000a0 b3 a2 ff 3d 63 6d d7 3d 02 64 07 3e fc bc 65 3e
       0.12482204 0.10518911 0.13221744 0.22435373
0000b0 e8 80 80 3d 67 1f 44 3e 4d 7f fc 3c ed 1c 3b 3e
       0.06274587 0.19152604 0.03082242 0.18272753
0000c0 78 96 6b 3c 0e 48 63 3e 9e fb b7 3d c8 a6 da 3d
       0.014379136 0.22195455 0.08983539 0.10676342
0000d0 db d5 c7 3d e2 ba 9b 3d 92 08 e7 3d 9f 79 65 3e
       0.097575866 0.076040044 0.112809315 0.22409676
0000e0 78 5e a1 3d 68 39 02 3d 62 b9 39 3e 38 bf 1f 3e
       0.078793466 0.031793028 0.18137124 0.15600288
0000f0 03 3b 1e 3e 7c 22 14 3e 84 5d 89 3e 22 76 81 3e
       0.15452199 0.1446628 0.2682916 0.2528544
000100 6c 3b aa 3e dc 8c 83 3e 72 c7 b1 3d 67 10 49 3e
       0.3324846 0.25693405 0.08680619 0.19635163
000110 e4 f6 bd 3d 02 2b 1c 3d 9b 92 99 3e 76 2a 21 3e
       0.09275606 0.038126953 0.29994664 0.15738854
000120 ed 05 d2 3e 76 d8 04 3e 0c 25 fe 3c 7b be 4e 3e
       0.41020146 0.12973198 0.031023525 0.2018985
000130 2c 9b 4e 3d ee 8f 5f 3e bb 71 2c 3e aa 47 41 3e
       0.050440952 0.21832249 0.1684026 0.18874994
000140 48 6c f6 3d fd 9f ce 3d bc 7f 26 3e 31 b8 ec 3d
       0.12032372 0.10089109 0.16259664 0.11558569
000150 5a c3 97 3e 2c 4d 56 3e 8b a6 60 3e 2b 30 82 3e
       0.2964123 0.20927876 0.21938531 0.25427374
000160 65 dc 04 3e 9e 65 89 3d 00 f1 84 3d 93 eb 0b 3e
       0.12974699 0.06708835 0.064912796 0.13664083
000170 8c 7c ba 3e 0e 46 7e 3e 8f e7 65 3d fa f4 8a 3e
       0.36423147 0.24831411 0.056129035 0.27140027
000180 56 fe 2f 3e 30 b5 35 3e b8 b3 3c 3e 9f 1a 12 3e
       0.17186865 0.17744899 0.18427932 0.14267968
000190 e6 49 81 3e a7 65 79 3e fb de 18 3e 68 12 11 3e
       0.25251693 0.24355184 0.1492881 0.14167178
0001a0 18 5e 8d 3e 11 0c f5 3d 4d db 64 3d 10 72 9c 3e
       0.2761085 0.11965192 0.055873204 0.30555773
0001b0 31 41 da 3d 6f eb a5 3d da 9f 3c 3e 7d 64 ba bd
       0.106569655 0.08101546 0.18420354 -0.09101198
0001c0 76 5c 04 3e c2 b5 7b 3e 17 38 52 3e 5f 9d 2b 3e
       0.12925896 0.24581054 0.20529209 0.16759251
0001d0 4a 28 8c 3d fa 07 15 3e de da 4b 3e 3c 88 86 3d
       0.06843622 0.14553824 0.1990771 0.065689534
0001e0 94 4a 18 3e eb e3 7d 3d 65 3c 17 bd 64 0a 55 3e
       0.148722 0.061984938 -0.03692283 0.20804745
0001f0 94 d6 85 3e ac 78 c9 3d 6f 80 56 3d f2 d1 5f 3e
       0.26140273 0.098374695 0.052368578 0.21857432
000200 bc 17 9a 3e 52 b9 f9 3d 55 b7 4c 3e ff 1b 43 3e
       0.30096233 0.1219355 0.1999181 0.19053648
000210 13 a2 c2 3e 21 9e b5 3d eb fe 28 3e 06 1d 9d 3e
       0.38014278 0.08868051 0.16503493 0.30686206
000220 06 6c ee 3d a8 d7 3c 3d 24 a1 44 3e 28 12 9d 3d
       0.116416976 0.046104103 0.19202095 0.07669479
000230 f7 85 21 3e 91 02 e4 3d 26 e9 cc 3d c4 42 0c 3e
       0.1577376 0.11133302 0.10005407 0.13697344
000240 6d e7 8b 3e 00 ee 8f 3e 3c a0 77 3e f7 8b bb 3d
       0.27325 0.28111267 0.24182218 0.091575556
000250 85 a6 46 bd eb 21 a6 3d df 4c 28 3e f4 2a 0b 3e
       -0.04849865 0.08111938 0.16435574 0.13590604
000260 92 d8 31 3e 13 9b bb 3d 4f 89 13 3e 50 50 0c 3e
       0.17367771 0.091604374 0.14407848 0.13702512
000270 eb 7b 97 3d e4 31 30 3e d6 81 67 3e f1 6a 5a 3e
       0.07396682 0.17206532 0.22608122 0.21329857
000280 e6 3f 0e 3e 13 cc 1f 3e 9e d2 2b 3e 21 cd fa 3b
       0.13891563 0.15605192 0.16779563 0.007653848
000290 dd a7 10 3e 1c 0e 0f 3e c8 f1 39 3e 29 11 ed 3d
       0.14126535 0.13970226 0.18158638 0.11575539
0002a0 88 4e 21 3d d8 1c 83 3e 56 35 a5 3d 00 39 d1 3d
       0.039381534 0.25607944 0.08066814 0.1021595
0002b0 b1 d6 52 3d 43 ff db 3d 55 ec a0 3d 32 6a 5c 3d
       0.051474277 0.10742047 0.07857577 0.053812213
0002c0 1f 22 4d 3e 34 97 55 3e e8 52 0c 3e 12 54 dd 3d
       0.20032547 0.2085846 0.13703501 0.10807051
0002d0 16 b7 e3 3d a5 17 57 3e d0 39 8d 3e 38 a4 aa 3d
       0.11118905 0.21005113 0.2758317 0.083321035
0002e0 35 99 68 3e 4f 64 a7 3d 4d 3b 02 3e 7b 9f 8f 3d
       0.22714694 0.08173429 0.12717934 0.0701284
0002f0 79 19 26 3e 9f ad ac 3e 8d 45 79 3d f8 ca 03 3e
       0.16220655 0.33726212 0.060857344 0.12870395
000300 8d 2c 36 3e 00 8e 24 3e 3e cc 93 3d 2f 72 9b 3d
       0.17790432 0.16069794 0.072166905 0.07590138
000310 0e 4e 1b 3c 87 01 f6 3d 69 df 8b 3d 75 d9 1d 3e
       0.009479059 0.1201201 0.068297215 0.15414985
000320 01 c4 94 3e e2 36 9a 3e 62 e1 c3 3d 6b de 85 3e
       0.2905579 0.30119997 0.09564473 0.26146254
000330 ab 2c a6 3d fa ce 20 3e f5 bf 7e bc 08 88 05 3e
       0.081139885 0.15703955 -0.015548696 0.13040173
000340 24 6d 0d 3e 09 a5 6d 3e 38 50 0f 3e c7 27 31 3e
       0.13811165 0.23207487 0.13995445 0.1730033
000350 59 0a 7f 3e 4d 32 ec 3d 5b 40 76 3e 75 b1 08 3d
       0.24906291 0.115330316 0.24047987 0.03337236
000360 f3 7e b9 3e 92 ef 99 3e cc d3 5c 3c ca 43 cf 3e
       0.36229667 0.3006559 0.013478231 0.40481406
000370 f4 2c 24 3e 74 d0 33 3e 34 bc 34 3e 5f 3b 58 3e
       0.16032773 0.17559987 0.17649919 0.21116398
000380 93 f3 3d 3e b2 70 aa 3d be b6 e1 3d 12 1a 93 3e
       0.18549947 0.08322276 0.110211834 0.28730828
000390 31 e8 12 3d 8a 03 a0 3d 4c 39 36 3e fc da 62 3d
       0.035865966 0.07813175 0.17795295 0.05538462
0003a0 89 4e 07 3e e4 7f 9e 3d 9c 74 50 3e 93 37 26 3e
       0.13213553 0.07739237 0.20356983 0.16232137
0003b0 4d 39 b9 3d eb 39 85 3e fb 95 63 3e 8b ee 86 3d
       0.090441324 0.2602075 0.22225182 0.06588467
0003c0 b6 a2 9e 3d 22 c3 0b 3d b7 70 43 3e 91 e4 52 3e
       0.077458784 0.03412164 0.19085966 0.20595004
0003d0 0d a8 35 3e ad cb 43 3e 3f 82 b2 3e 0e f7 94 3e
       0.17739888 0.19120665 0.34864995 0.29094738
0003e0 f1 b5 d0 3d 00 56 6d 3d f8 fe 38 3e 7d c5 fd 3d
       0.101909526 0.057943344 0.18066013 0.123911835
0003f0 0b d9 ea 3d eb 3a 6d 3e ec 78 9f 3e 38 0b dc 3d
       0.11467179 0.23167007 0.31146944 0.10744327

running_mean f4 [256]
000000 1d 51 c8 bf 04 88 84 3f 61 6b f7 3f d1 85 9a be
       -1.5649754 1.0354009 1.9329644 -0.3018022
000010 a6 d5 c7 be 5f a9 17 bd 65 38 03 be b2 18 61 be
       -0.39030188 -0.03702676 -0.12814482 -0.21982077
000020 54 85 e0 be 0b ce 33 bf 27 fe ac be 4c 29 52 bf
       -0.4385172 -0.7023627 -0.33787653 -0.82094264
000030 83 6c 95 be d0 b0 a4 3f f3 b2 ac bf 21 c1 95 bf
       -0.2918435 1.2866459 -1.3492111 -1.1699563
000040 43 d0 97 3b 0b 1c 04 3d f6 74 64 bf f8 d2 23 bf
       0.004632981 0.032253306 -0.8924097 -0.6399379
000050 10 91 35 be 9f de 4e bd 08 b8 5e bf ad 76 2a bf
       -0.17731118 -0.050505277 -0.8699956 -0.66587335
000060 0a 54 da 3e 83 c3 4f 3f 7d fa b2 be ff a2 4e bf
       0.42642242 0.811577 -0.34956732 -0.8071746
000070 02 db 7d bd 5c 15 e2 bd 8a 46 ea 3d ad 2c af 3f
       -0.06197644 -0.1103923 0.114392355 1.3685509
000080 bf c8 ec 3d c9 f3 1c bf cc ee de 3e fc 45 44 be
       0.11561727 -0.61309487 0.43541563 -0.19167322
000090 7f 70 87 3f d3 fe 84 bf fb db 07 3c 19 78 e0 be
       1.0581206 -1.0390266 0.0082921935 -0.43841627
0000a0 dc d3 8d be e8 92 5e bf 1d 61 4b 3e 4f df 79 3e
       -0.27700698 -0.8694291 0.19861265 0.24401592
0000b0 35 97 e1 bc 96 30 69 be d0 be 2c be 0d fc 43 bf
       -0.027537921 -0.2277244 -0.16869664 -0.76556474
0000c0 a7 8c 13 be cd 7e 2f bf 1e be 8b be 9f 5d 78 bf
       -0.14409123 -0.6855286 -0.27293485 -0.97017854
0000d0 d8 d2 23 bf 19 7f cc 3b 68 af 65 bf 91 db a1 3f
       -0.639936 0.006240737 -0.89720774 1.2645131
0000e0 46 b6 f6 bf 49 68 83 3f bf ea 06 bf 39 80 99 be
       -1.9274375 1.02662 -0.52701944 -0.2998064
0000f0 99 e1 73 bf 60 fe ab bd 7a ba 9b 3d 0f b8 ff 3e
       -0.9526611 -0.083981276 0.07603927 0.49945113
000100 a6 08 2c 3e ab f2 16 3e ab 65 cb be a3 c9 41 3e
       0.16800174 0.14741008 -0.39726004 0.18924575
000110 5b 6b b1 bd 19 b4 54 bf e0 57 81 3c 17 26 bc 3f
       -0.086630546 -0.8308731 0.015788972 1.4699124
000120 f9 d2 76 3f 23 e6 5b bf ff 60 f9 be 51 17 5e 3f
       0.9641567 -0.85898036 -0.48706815 0.8675433
000130 da 65 3c bf 1e 30 24 bf 42 a0 b3 bf 4e 43 9e bf
       -0.73592913 -0.6413592 -1.4033282 -1.236429
000140 1d 06 05 bf 30 51 f1 3c 91 07 8d bf 33 0d 56 be
       -0.51962453 0.029457659 -1.1017934 -0.20903473
000150 1f 85 75 3f 88 49 d1 3e 04 14 8d 3c a6 aa 0e 3f
       0.9590625 0.40876412 0.017221458 0.5572914
000160 e3 2e b0 bf 53 8d b2 bf b2 2a 0c bd a3 b4 27 bf
       -1.3764309 -1.3949379 -0.034220405 -0.65510005
000170 56 88 3b 3f 1b ff 77 3f 33 3f 1d bf 6b e4 09 bf
       0.7325491 0.96873635 -0.6142456 -0.53864163
000180 b3 5d f7 be e0 13 0d bf ce 23 9e be 56 35 cf be
       -0.48313674 -0.5510845 -0.30886692 -0.4047038
000190 8a 87 b6 3f 90 35 f4 3f 07 85 2b bf 59 15 bc 3e
       1.4260113 1.9078846 -0.6699986 0.36735037
0001a0 33 37 7d bf 40 39 53 bf 30 7d af bf 5d 63 69 be
       -0.9891235 -0.8250923 -1.3710079 -0.2279181
0001b0 4d b3 a6 be f5 86 79 bf cc 12 51 3c 7c d5 3c be
       -0.3255867 -0.97471553 0.012760829 -0.18440813
0001c0 99 97 bb be 91 54 43 bf 4b 27 92 3e fd c3 3c bf
       -0.36639097 -0.76300913 0.28545603 -0.73736554
0001d0 3f 3f 0b bf 28 11 a3 be cd bd f0 be 6e 94 b1 bf
       -0.5439338 -0.31849027 -0.47019807 -1.3873422
0001e0 4a ed 88 bf 4c 7b 91 be 07 97 78 be e1 81 51 bf
       -1.0697415 -0.2841438 -0.24276362 -0.81838804
0001f0 d0 a3 d4 3e 27 dc b9 bd a8 b6 5b bf 4a 05 7b 3f
       0.4153123 -0.09075194 -0.85825586 0.98054945
000200 f4 9e b7 bf b9 00 84 bf 7e e9 77 bf ec 00 1d 3f
       -1.4345384 -1.031272 -0.96840656 0.6132953
000210 f6 4c ac 3e db 5f 36 bf f1 ff 69 3f 90 71 c6 be
       0.33652467 -0.71240014 0.9140616 -0.38758516
000220 64 e4 4b be 64 9f cc be e4 a7 5e bf 4d 3b 38 bf
       -0.19911343 -0.39965355 -0.8697493 -0.71965486
000230 f6 58 28 bf 19 5b 4a 3f 67 ec 1c bf 5d 23 63 be
       -0.65760744 0.79045254 -0.6129822 -0.22181459
000240 c2 ff 39 3f da 70 22 bf 74 69 90 bf e9 a3 26 3f
       0.7265588 -0.6345345 -1.1282182 0.6509386
000250 d4 27 ef 3e 75 50 d0 be 21 e7 07 bf fc 0b 3f bf
       0.46710074 -0.40686384 -0.5308705 -0.7462766
000260 e4 53 9a bf 6e e1 88 bf c2 65 9d 3f 0a db 08 bf
       -1.2056851 -1.0693796 1.2296679 -0.5345923
000270 45 00 9d 3f 04 1f 71 bf 8d 6a 63 bf e1 69 49 3e
       1.2265707 -0.9418795 -0.8883446 0.19669296
000280 37 c4 48 bf 73 3c c2 3f 1e 7d 37 be 06 55 34 bf
       -0.784244 1.5174698 -0.17918822 -0.70442235
000290 e5 b0 54 3e ca 35 ad 3f a3 73 72 be 2f 76 23 bf
       0.20770605 1.353204 -0.23676924 -0.6385221
0002a0 6a 2e 33 bf ae 02 82 3f 79 11 ea 3e d2 d9 ff 3e
       -0.699927 1.0157068 0.45716456 0.4997087
0002b0 3f 2e 51 be be 19 18 bf c3 4b 65 bf 6b 75 de be
       -0.20427798 -0.5941428 -0.8956873 -0.43448958
0002c0 85 a1 82 3f a7 93 8b bf 96 42 cf 3f 40 fa 7a bf
       1.0205542 -1.0904435 1.6192195 -0.980381
0002d0 66 b1 e7 be 91 04 24 3f c4 d8 41 3f b5 20 af 3e
       -0.45252532 0.6406947 0.75721383 0.3420464
0002e0 da cd 47 bf 3d 4c 25 3e 6d 27 bd 3f 1e 7c a4 bf
       -0.7804848 0.16142364 1.4777657 -1.2850378
0002f0 1b 81 9d bf 7c 48 80 3e 19 03 f4 be 0c 0d e8 be
       -1.2305025 0.250553 -0.47658613 -0.45322454
000300 f0 1c 17 3f 2b 74 2e bf be 1a 37 bf 1b 5e f0 bd
       0.5902853 -0.6814601 -0.7152518 -0.11736699
000310 de 20 0f bf f1 37 63 be 9a 02 8b bf c7 6c 32 bf
       -0.55909526 -0.22189309 -1.0860169 -0.6969723
000320 47 a9 51 bf 5b da b7 3f 25 5d c0 3d e9 a8 7b bf
       -0.8189892 1.4363512 0.09392766 -0.9830461
000330 de 3b c4 bf d5 4d 7b bf 38 93 a5 3f 45 ec ea be
       -1.533077 -0.9816564 1.2935553 -0.45883384
000340 77 ec a8 be 80 85 0e bb 1f 00 96 bf 14 88 cf 3e
       -0.32992908 -0.0021747053 -1.1718787 0.40533507
000350 87 d4 0d 3f 52 98 88 bf a4 3c 81 bf 84 ca 7c 3f
       0.55402416 -1.0671484 -1.0096631 0.98746514
000360 8a 65 27 3f 16 d7 8d be 16 d0 61 bf 7c 88 9f 3f
       0.6538931 -0.2770316 -0.8820814 1.2463527
000370 de 0c 1d bf 0c dc 8e bd 85 33 0c 3f b5 19 14 be
       -0.6134776 -0.06975564 0.5476611 -0.14462931
000380 4a e2 37 3e f6 ea 55 bc 1c 21 4b bf 34 61 af 3c
       0.17957416 -0.013056507 -0.79347396 0.021408655
000390 0f d2 e9 be b9 b5 57 bf 43 8f 36 3f e5 b9 63 bf
       -0.45668074 -0.8426166 0.7131235 -0.8895553
0003a0 9a 0d 04 3f 85 d4 02 3c 87 06 a1 bf 61 80 1d 3e
       0.51583254 0.007985239 -1.2580117 0.15381004
0003b0 67 f4 c5 be 9b 52 cf 3f 54 82 ea 3d 65 5a ca be
       -0.38663027 1.6197084 0.11450639 -0.3952209
0003c0 41 bd 19 3f 8d d8 0b bf 31 0c 67 bf a4 ef 9e bf
       0.60054404 -0.54627305 -0.9025298 -1.2416883
0003d0 32 07 82 3f 84 bf 44 bf 5e ed c4 3e 15 e2 9d 3e
       1.0158446 -0.7685473 0.38462347 0.3083655
0003e0 57 ae 73 3f db d7 09 bf 77 05 82 3f f6 87 7a bf
       0.95187896 -0.53844994 1.0157918 -0.9786371
0003f0 c7 06 c6 3d 6d 75 59 bf 83 0f 52 bf 4f e9 bc be
       0.096692614 -0.849448 -0.8205492 -0.3689675
