temp/model/model.pth (torch, 123774 bytes, 14 tensors)

weight f4 [128]
0	0x3f533c30	0.82513714
1	0x3f5375f3	0.8260185
2	0x3f688331	0.9082518
3	0x3f5d6f50	0.86497974
4	0x3f4e1dbb	0.80514115
5	0x3f7586aa	0.95908606
6	0x3f70fe9f	0.9413852
7	0x3f49094c	0.7852981
8	0x3f60fbef	0.8788442
9	0x3f54c9dc	0.8312051
10	0x3f5e54e0	0.8684826
11	0x3f50fc1d	0.81634694
12	0x3f46030d	0.77348405
13	0x3f5fd8ac	0.8743999
14	0x3f805130	1.0024776
15	0x3f4f231f	0.80912966
16	0x3f60ae41	0.8776589
17	0x3f601a80	0.87540436
18	0x3f4c90d9	0.7990852
19	0x3f4bea28	0.7965417
20	0x3f6b3617	0.9187941
21	0x3f4c24d8	0.7974372
22	0x3f537f4f	0.8261613
23	0x3f6e6821	0.9312764
24	0x3f66499c	0.8995607
25	0x3f5c3f0d	0.8603371
26	0x3f64c617	0.8936476
27	0x3f66f47c	0.90216804
28	0x3f642bce	0.8912934
29	0x3f4a1899	0.78943783
30	0x3f434ce8	0.76289225
31	0x3f5ddce8	0.866652
32	0x3f5fb74b	0.8738906
33	0x3f5c8571	0.86141115
34	0x3f640edb	0.8908517
35	0x3f6c335c	0.9226587
36	0x3f4fc51b	0.81160134
37	0x3f5350f5	0.82545406
38	0x3f7e44eb	0.9932391
39	0x3f5b94d7	0.85773987
40	0x3f619055	0.8811086
41	0x3f52a876	0.822883
42	0x3f6b24b0	0.91852856
43	0x3f57252a	0.8404108
44	0x3f74f345	0.956837
45	0x3f59fe58	0.8515372
46	0x3f6435b8	0.8914447
47	0x3f4ee84e	0.8082322
48	0x3f5693aa	0.8381907
49	0x3f70a3e5	0.94000083
50	0x3f58452f	0.84480566
51	0x3f4bca54	0.79605603
52	0x3f528c68	0.8224549
53	0x3f64a150	0.89308643
54	0x3f61590f	0.8802652
55	0x3f48cde3	0.7843916
56	0x3f7e4b6a	0.9933382
57	0x3f572d77	0.8405375
58	0x3f6097ab	0.87731427
59	0x3f5c5998	0.8607421
60	0x3f712a9b	0.94205636
61	0x3f6332db	0.88749474
62	0x3f5abb49	0.85442024
63	0x3f88100c	1.0629897
64	0x3f699e41	0.912571
65	0x3f4df2f2	0.8044883
66	0x3f657fec	0.8964832
67	0x3f744162	0.95412266
68	0x3f537db5	0.8261369
69	0x3f5bceda	0.85862505
70	0x3f695d77	0.9115824
71	0x3f665029	0.89966065
72	0x3f5682fe	0.8379363
73	0x3f66e63e	0.9019507
74	0x3f8b6b39	1.0892097
75	0x3f5416f3	0.8284752
76	0x3f575bb1	0.84124285
77	0x3f67b9fc	0.90518165
78	0x3f51d38c	0.8196342
79	0x3f6c9989	0.92421776
80	0x3f48176d	0.78160745
81	0x3f7c7698	0.9861846
82	0x3f55af99	0.83471066
83	0x3f60e6c6	0.8785213
84	0x3f67e123	0.90577906
85	0x3f5f3c13	0.8720104
86	0x3f5a7b74	0.85344625
87	0x3f57a767	0.8423981
88	0x3f6a19bf	0.91445535
89	0x3f6943c5	0.91119033
90	0x3f5a552a	0.852862
91	0x3f646e83	0.8923113
92	0x3f577170	0.84157467
93	0x3f65fa30	0.8983488
94	0x3f77e3e3	0.968321
95	0x3f544dc7	0.8293118
96	0x3f5eeccf	0.8708009
97	0x3f3b0af8	0.7306361
98	0x3f6b907e	0.9201735
99	0x3f56c2b6	0.83890855
100	0x3f6891ec	0.9084766
101	0x3f6c95b2	0.92415917
102	0x3f547b56	0.83000696
103	0x3f58b444	0.84650064
104	0x3f7158e7	0.9427628
105	0x3f716858	0.9429984
106	0x3f59f608	0.8514104
107	0x3f5c07d8	0.8594947
108	0x3f6adaa1	0.9173985
109	0x3f68f17d	0.9099348
110	0x3f6d3c7b	0.9267041
111	0x3f59087f	0.8477859
112	0x3f6bc63f	0.92099375
113	0x3f5faebf	0.87376016
114	0x3f41b3ea	0.7566515
115	0x3f47ca06	0.7804264
116	0x3f65159a	0.89486086
117	0x3f62c7f2	0.8858634
118	0x3f6f51cb	0.9348418
119	0x3f4b6984	0.7945788
120	0x3f5afe56	0.85544336
121	0x3f6ec415	0.9326795
122	0x3f53a131	0.82667834
123	0x3f5fe833	0.8746368
124	0x3f6311b2	0.88698876
125	0x3f792b4a	0.9733168
126	0x3f5ead31	0.8698302
127	0x3f74e6ac	0.9566448

bias f4 [128]
0	0xbee2abc4	-0.44271672
1	0xbf12a324	-0.5728018
2	0xbecde618	-0.4021461
3	0xbeb96be7	-0.36215135
4	0xbf0cabf2	-0.5494987
5	0xbebb46a9	-0.36577347
6	0xbf23dbd4	-0.64007306
7	0xbef6db0a	-0.4821399
8	0xbed1f815	-0.41009584
9	0xbf01da8e	-0.50724113
10	0xbec53fcd	-0.3852524
11	0xbeddd7b0	-0.4332862
12	0xbedf45c2	-0.43607908
13	0xbeac3a5d	-0.33638278
14	0xbec4b956	-0.3842265
15	0xbeb1bc1e	-0.34713835
16	0xbebeb4f1	-0.37247422
17	0xbeb95451	-0.3619714
18	0xbf0284e9	-0.50984055
19	0xbedf5f6e	-0.43627495
20	0xbf02c7b2	-0.5108596
21	0xbe947505	-0.2899553
22	0xbebeaf6e	-0.37243217
23	0xbf144f69	-0.5793367
24	0xbf10a039	-0.5649448
25	0xbee0f506	-0.43936938
26	0xbec877fd	-0.39154044
27	0xbf06c472	-0.526435
28	0xbef4b866	-0.47796935
29	0xbeffad34	-0.4993683
30	0xbef30b8c	-0.47469747
31	0xbed24d72	-0.4107471
32	0xbea1e30b	-0.31618533
33	0xbeb6b3a0	-0.35683918
34	0xbefea8e4	-0.49738228
35	0xbeea4758	-0.45757556
36	0xbeebdbab	-0.4606603
37	0xbee1d03d	-0.44104186
38	0xbecd1170	-0.40052366
39	0xbece9784	-0.40349972
40	0xbefa10f0	-0.48841047
41	0xbe8ba4e1	-0.2727423
42	0xbecf46b2	-0.40483624
43	0xbebeced3	-0.3726717
44	0xbf14c8bb	-0.5811879
45	0xbed75631	-0.42057946
46	0xbf007b78	-0.501884
47	0xbf0013cc	-0.5003021
48	0xbe8e3755	-0.2777659
49	0xbef1ebd7	-0.47250244
50	0xbed2f6db	-0.4120396
51	0xbe298f8d	-0.16558667
52	0xbed5dc78	-0.41769767
53	0xbed2a853	-0.41144046
54	0xbeeac9ba	-0.4585703
55	0xbec9c1dd	-0.39405718
56	0xbf10a75d	-0.56505376
57	0xbec50d47	-0.38486692
58	0xbf0d213d	-0.5512884
59	0xbe766f6f	-0.24065946
60	0xbf07260b	-0.52792424
61	0xbf02bdf8	-0.5107112
62	0xbeca5bdf	-0.39523217
63	0xbece5b71	-0.4030414
64	0xbec0fb1a	-0.37691575
65	0xbe9f7bce	-0.31149143
66	0xbef0b43b	-0.47012505
67	0xbecc3efe	-0.3989181
68	0xbf0d7cbd	-0.5526846
69	0xbf018359	-0.50591046
70	0xbf16c1a5	-0.5888923
71	0xbef43c8f	-0.47702453
72	0xbedba212	-0.42897087
73	0xbf059884	-0.52185845
74	0xbf4180a6	-0.75586927
75	0xbeb32345	-0.34987846
76	0xbe82b5c5	-0.25529304
77	0xbedc4922	-0.43024546
78	0xbefc8360	-0.4931898
79	0xbeab8599	-0.33500364
80	0xbe7f3705	-0.24923332
81	0xbed4e4e8	-0.41580892
82	0xbee1ae9b	-0.44078526
83	0xbf038599	-0.5137573
84	0xbee1a98c	-0.44074667
85	0xbedbb44e	-0.42911
86	0xbee22b0e	-0.44173473
87	0xbecbbfb0	-0.39794683
88	0xbebdd49c	-0.3707627
89	0xbe897589	-0.26847485
90	0xbea70f66	-0.32628936
91	0xbec1d4ee	-0.37857765
92	0xbf055ae9	-0.5209184
93	0xbe82cfe7	-0.25549242
94	0xbf1b36cb	-0.6063048
95	0xbee326d0	-0.4436555
96	0xbedebaac	-0.43501794
97	0xbe59203b	-0.21203701
98	0xbefc9ff3	-0.49340782
99	0xbeaeba90	-0.3412671
100	0xbebecf17	-0.37267372
101	0xbe9f29a3	-0.31086454
102	0xbf07912c	-0.5295589
103	0xbf059cd1	-0.5219241
104	0xbef580a2	-0.47949702
105	0xbf09ef97	-0.5388121
106	0xbeea66f8	-0.45781684
107	0xbee03ac3	-0.43794832
108	0xbebcccb1	-0.36874917
109	0xbf1d5076	-0.614509
110	0xbea4e20a	-0.32203704
111	0xbef56487	-0.4792826
112	0xbf1756ba	-0.5911671
113	0xbeb85ac8	-0.3600676
114	0xbec9943f	-0.39370915
115	0xbeb77b0b	-0.35836062
116	0xbed8a5e7	-0.42314073
117	0xbf03d499	-0.51496273
118	0xbf1c3301	-0.61015326
119	0xbf01f65b	-0.50766534
120	0xbeba8fc8	-0.3643782
121	0xbf107a94	-0.5643704
122	0xbed4bd63	-0.4155074
123	0xbe9e4965	-0.3091537
124	0xbf1013ca	-0.56280196
125	0xbeb471d8	-0.35243106
126	0xbf0928b7	-0.5357775
127	0xbee3e06f	-0.44507167

running_mean f4 [128]
0	0xbf9d3b22	-1.2283671
1	0x403e20ff	2.970764
2	0xc005dce0	-2.0916061
3	0xbf35f0e2	-0.71070683
4	0x3ec7a463	0.38992605
5	0xbfcd5b16	-1.6043422
6	0xc02fdf28	-2.7479954
7	0xbf49f7a2	-0.7889348
8	0xbfe56920	-1.7922707
9	0xbf9e8d5f	-1.2386893
10	0x3f0127ae	0.5045117
11	0xbfcf9b77	-1.6219319
12	0x3fb659c6	1.4246147
13	0xc000fc42	-2.0153966
14	0xc00c2442	-2.189713
15	0xbed478cd	-0.41498414
16	0xc00669c3	-2.1002052
17	0x3fad222f	1.3526057
18	0x3fddac30	1.7318172
19	0x3f3861e2	0.7202436
20	0x3ec96347	0.39333555
21	0x400ec5f0	2.2308311
22	0x3ea8211b	0.32837757
23	0xbfb23c0e	-1.3924577
24	0xbf3410e5	-0.7033828
25	0x3f8aa350	1.0831089
26	0x3fb71632	1.4303648
27	0xbfc5163a	-1.5397408
28	0x3df39e7b	0.11895462
29	0xc05022d2	-3.2521253
30	0xbfc777e5	-1.5583464
31	0xc0217334	-2.5226564
32	0x3f394ec3	0.72385806
33	0xbfa5780c	-1.292726
34	0xbfcb6112	-1.5888999
35	0x3ed23c64	0.410617
36	0xbfb6681a	-1.4250519
37	0x3f38cb6d	0.72185403
38	0x3f0cfcc9	0.5507322
39	0xc009e1f6	-2.1544166
40	0x3fa289c4	1.2698293
41	0xbff140c9	-1.8847896
42	0xbef57ea1	-0.47948173
43	0xbf44c9fd	-0.7687071
44	0xbfaa415a	-1.3301194
45	0xbe12583f	-0.14291476
46	0xbfa9ca5f	-1.3264884
47	0xbeb981e2	-0.36231905
48	0x3e73eb15	0.23820145
49	0x3fde8761	1.7385064
50	0x3d855365	0.06510047
51	0x3ef73438	0.48282027
52	0x3db247a5	0.08705071
53	0xbe782f78	-0.24236858
54	0x3fdbbf98	1.7167845
55	0x3f0fdbf6	0.5619501
56	0xbfd2449b	-1.6427187
57	0xbfc779f2	-1.558409
58	0xbfc1c1d5	-1.5137278
59	0xc0020e86	-2.0321364
60	0xc021e1ba	-2.5294023
61	0xbf0df9e4	-0.5545943
62	0x3fb8c890	1.4436207
63	0x3e965bd9	0.2936695
64	0x3e7900f4	0.2431677
65	0xbee61fa1	-0.44946006
66	0xbec4e668	-0.38457036
67	0xc017e5c2	-2.3733983
68	0xc02cba30	-2.698864
69	0xbe62ae3c	-0.22136778
70	0xbfff708e	-1.9956224
71	0x3fbe58da	1.4870865
72	0xbeaea030	-0.34106588
73	0x3ee2353a	0.44181234
74	0xc00b72c1	-2.178879
75	0xbf51993f	-0.8187446
76	0xbf0d96c6	-0.55308187
77	0xbee0d68b	-0.43913683
78	0xbff8d42f	-1.9439753
79	0x3eff8136	0.49903268
80	0x3d7c8606	0.061651252
81	0xbfc6e436	-1.5538394
82	0x3f9fd2ba	1.2486184
83	0xc02bc7db	-2.6840732
84	0xbfb11037	-1.3833073
85	0xbed1344c	-0.40860212
86	0xc011b69a	-2.27677
87	0x40078d1f	2.1179883
88	0xc0049bd7	-2.0720117
89	0x3ed6b2c5	0.41933265
90	0xbec028ba	-0.37531072
91	0xbff8da91	-1.9441701
92	0xbbddc0ab	-0.0067673526
93	0xc043a22b	-3.056773
94	0xc08431c7	-4.1310763
95	0xbfdc63b9	-1.7217933
96	0xbe7b335d	-0.24531312
97	0x3fb8edaf	1.4447535
98	0xbebf3802	-0.37347418
99	0xbfe1b3bc	-1.7632976
100	0x3fb09c3c	1.3797679
101	0x3eab995b	0.33515438
102	0x3df18065	0.117920674
103	0xc01eaecc	-2.4794188
104	0xbf057dce	-0.5214509
105	0xbfb8caad	-1.4436852
106	0xbffb6b0d	-1.9642044
107	0xbeb7892b	-0.35846838
108	0xbfb19cd1	-1.3875982
109	0xbfe18fd0	-1.7622013
110	0x3e49b579	0.19698133
111	0x3e16b1e3	0.14716296
112	0xc03b44da	-2.9260774
113	0xbf6d33fb	-0.9265744
114	0x3fa67043	1.300301
115	0x3d87e4b8	0.066354215
116	0xbcba6f41	-0.022758128
117	0x3d83cae8	0.06435186
118	0x4004b36b	2.0734508
119	0x3f131b9b	0.57464
120	0xbfca055c	-1.5782886
121	0x3e840316	0.25783604
122	0x401c5bd8	2.4431057
123	0x3f0018b4	0.50037694
124	0x3f1b2880	0.60608673
125	0xbffafc2e	-1.9608209
126	0xbf4b5553	-0.7942707
127	0xc06ee3f1	-3.7326624

running_var f4 [128]
0	0x3f18ddad	0.5971325
1	0x3e9b65ee	0.30351204
2	0x3fb60412	1.4219992
3	0x3f1f6d01	0.622757
4	0x3e8983a5	0.2685825
5	0x3f9f6295	1.245196
6	0x3f892394	1.0713983
7	0x3f04d21f	0.5188312
8	0x3ead905f	0.3389921
9	0x3f61e3b7	0.8823809
10	0x3f17e949	0.5934034
11	0x3ed1524f	0.4088311
12	0x3f04e399	0.51909786
13	0x3fd19014	1.6372094
14	0x406784ea	3.6174874
15	0x3f03f0b4	0.5153916
16	0x3e6011a3	0.21881728
17	0x3fbc2e04	1.4701543
18	0x3eeaa734	0.4583069
19	0x3ee8a2df	0.4543676
20	0x3ec62580	0.38700485
21	0x3f0b0b37	0.5431399
22	0x3f1fec00	0.6246948
23	0x3efea296	0.49733418
24	0x3f20f55b	0.6287438
25	0x3ea46272	0.32106358
26	0x3f00e472	0.5034858
27	0x3f27cc0d	0.6554573
28	0x3e68aa26	0.22721156
29	0x3ec3e2d0	0.38258982
30	0x3ea85f0c	0.32885015
31	0x401c6e39	2.4442275
32	0x3f2b84f0	0.6699972
33	0x3f2a53af	0.6653394
34	0x3ee4c963	0.44684896
35	0x3f8d2ae1	1.1028711
36	0x3f0f1cd9	0.55903393
37	0x3f198622	0.59970295
38	0x3f0a1e09	0.5395208
39	0x3f9a75cd	1.20672
40	0x3f371a46	0.71524465
41	0x3eb16867	0.34649965
42	0x3f2068b9	0.62659794
43	0x3fb5dda2	1.4208262
44	0x3f2a3a05	0.6649478
45	0x3ef72458	0.48269916
46	0x3ecdeb62	0.40218645
47	0x3e8a2e17	0.2698829
48	0x3f3b3ba7	0.731379
49	0x3ee00179	0.43751124
50	0x3fa25c3a	1.2684395
51	0x3f0ad3d6	0.54229486
52	0x3e9025e1	0.281539
53	0x3fd37eaf	1.6523036
54	0x3f10a5c8	0.5650296
55	0x3edd2329	0.43190888
56	0x3ec941ad	0.3930792
57	0x3f1b1bde	0.60589397
58	0x3e802e15	0.25035158
59	0x3f16cf15	0.5890973
60	0x4025a0ff	2.5879514
61	0x3efcd52d	0.4938139
62	0x3e2089ea	0.1567761
63	0x3fb441a7	1.4082536
64	0x3e5f5c44	0.2181254
65	0x3f61ae3a	0.88156474
66	0x3f2d8876	0.6778635
67	0x4031c5f5	2.7777073
68	0x3f837e60	1.0272942
69	0x3f5dbfa5	0.8662055
70	0x3ee62611	0.44950917
71	0x3ee2e263	0.44313344
72	0x3e94f388	0.2909205
73	0x3f842aed	1.03256
74	0x3f21ffa2	0.6328069
75	0x3f13ff6c	0.5781162
76	0x3fab4762	1.3381159
77	0x3e7e4470	0.24830794
78	0x3f2e3309	0.68046623
79	0x3eb14c26	0.3462841
80	0x3f3af490	0.7302942
81	0x403389a5	2.8052762
82	0x3f409181	0.7522202
83	0x3f697108	0.91188097
84	0x3e9e53bf	0.30923268
85	0x3e4c456a	0.19948354
86	0x3f16858d	0.5879753
87	0x3f4ce24e	0.80032814
88	0x3ec07684	0.3759042
89	0x3e8d1a67	0.27559206
90	0x3f15d86b	0.5853335
91	0x3f0b6e01	0.5446473
92	0x3ecdc74a	0.40191108
93	0x3ecde21c	0.4021157
94	0x3f6dded3	0.9291813
95	0x3ee5d1d9	0.44886664
96	0x3f271364	0.6526396
97	0x3f8f7dc8	1.121026
98	0x3eefec14	0.468598
99	0x3e67327f	0.22577856
100	0x3e89ddd1	0.26927045
101	0x3fa33db8	1.275321
102	0x3ea5541c	0.32290733
103	0x3f041ac9	0.5160337
104	0x3f82558d	1.0182358
105	0x3f45fa08	0.7733464
106	0x3ebfc8e1	0.37457946
107	0x3ef8afcf	0.4857163
108	0x3f34d1a6	0.706324
109	0x3f28117f	0.65651697
110	0x3e23adf3	0.15984325
111	0x3e8bacf3	0.27280387
112	0x3f8f4f2a	1.1196034
113	0x3ee3e5a2	0.44511133
114	0x3ef0e8a1	0.47052482
115	0x3f225648	0.63412905
116	0x3fab08e5	1.3362089
117	0x3ed29996	0.41132802
118	0x3e739ee7	0.23791085
119	0x3ed8dec0	0.42357445
120	0x3e9221ab	0.28541312
121	0x3f889862	1.0671504
122	0x3f1ee525	0.62068397
123	0x3f1314c5	0.57453567
124	0x3eaddb8e	0.3395657
125	0x3fa80c82	1.3128817
126	0x3e8bea55	0.2732722
127	0x3fb19c2d	1.3875786

weight f4 [128]
0	0x3fd39e14	1.6532617
1	0x4003fac3	2.0621803
2	0x3fd07640	1.6286087
3	0x3fe16674	1.7609391
4	0x3fe147c9	1.7600032
5	0x3ff9d998	1.9519529
6	0x3fe3f6ae	1.7809656
7	0x3fec3606	1.8453987
8	0x3fd3fbb2	1.6561186
9	0x3fea1133	1.8286499
10	0x3fe3d3b4	1.7798982
11	0x3fc1ff31	1.5156003
12	0x3fef1bde	1.8680379
13	0x3ffc0296	1.9688289
14	0x4002c783	2.0434272
15	0x3fe901d1	1.8203679
16	0x3fe51f74	1.7900224
17	0x3fdaa5de	1.7081869
18	0x3fdf27d1	1.7434026
19	0x3fd293d8	1.6451368
20	0x3ff9c461	1.9513055
21	0x3feda9c7	1.8567437
22	0x3fdd32dc	1.7281146
23	0x3fe8137c	1.8130946
24	0x3fd0f1b7	1.6323766
25	0x3fd44ba6	1.6585586
26	0x3fd227aa	1.6418355
27	0x3ff27480	1.8941803
28	0x3fe49591	1.7858144
29	0x3fe69a17	1.8015774
30	0x3fdb9b47	1.7156762
31	0x3ff03af8	1.8767996
32	0x3fead0a0	1.8344917
33	0x3fc3457c	1.525558
34	0x3fe47f54	1.7851357
35	0x3fd352a5	1.6509596
36	0x3fd0c0b7	1.6308812
37	0x4003edf7	2.0613992
38	0x3fef236d	1.8682686
39	0x3fed4ebb	1.8539652
40	0x4005f321	2.0929644
41	0x3ff90c16	1.9456813
42	0x3fceb82f	1.6149958
43	0x3fe5ec8a	1.7962811
44	0x3fcd5e95	1.6044489
45	0x4000eff4	2.0146456
46	0x3fd8bc2d	1.6932427
47	0x3ff33874	1.9001603
48	0x3fc5d92a	1.5456898
49	0x3fe758ef	1.8074015
50	0x3feaef6c	1.8354316
51	0x3fd5404b	1.6660246
52	0x3fdf6c59	1.745494
53	0x3fea1c03	1.8289798
54	0x3fef498b	1.8694319
55	0x3fdfc058	1.7480574
56	0x3fdb34a4	1.712544
57	0x3fe2513f	1.7681044
58	0x3fd3bf7e	1.6542814
59	0x3fc149bd	1.5100628
60	0x3fd7814d	1.6836334
61	0x3fefb0c5	1.8725821
62	0x3fd18124	1.6367536
63	0x3fde528a	1.7368939
64	0x3fe5b23e	1.794502
65	0x3fe40ecd	1.7817017
66	0x3ffd900e	1.9809587
67	0x3fd9ac0c	1.700563
68	0x3ff44285	1.90828
69	0x3fd7ba81	1.6853791
70	0x3ff1610b	1.885774
71	0x3fccb1a9	1.5991718
72	0x3ff40420	1.9063759
73	0x3fedc10f	1.8574542
74	0x3fd9de82	1.7021029
75	0x3fe71f92	1.805651
76	0x3fd54a58	1.6663313
77	0x3fe41d25	1.7821394
78	0x40007ea4	2.0077295
79	0x400415ef	2.0638387
80	0x3fda6ef7	1.7065114
81	0x3fd162c8	1.6358271
82	0x3fedcb46	1.8577659
83	0x3fd888e5	1.6916777
84	0x3fd45558	1.6588545
85	0x3fda94b0	1.7076626
86	0x3fe4b52c	1.7867789
87	0x3fd24ff6	1.6430652
88	0x3fdc359d	1.7203861
89	0x3fc58225	1.5430342
90	0x3fcf390c	1.6189284
91	0x3fe6af84	1.8022313
92	0x3fd6aa72	1.6770766
93	0x3fd33551	1.6500646
94	0x3fe191ff	1.762268
95	0x400787e0	2.1176682
96	0x3fce76e7	1.6130036
97	0x3ffd8241	1.9805375
98	0x3fcefe54	1.6171365
99	0x3ff2ae3e	1.8959424
100	0x3fd706ee	1.679899
101	0x3fe6ecc2	1.8041003
102	0x3fdf0aa6	1.7425125
103	0x3ff0aa95	1.8802058
104	0x3ffb5f9b	1.9638551
105	0x3fe6fbcb	1.8045591
106	0x3fffae33	1.9975036
107	0x3fe8dfa4	1.819325
108	0x3fe61fa2	1.7978404
109	0x3fe16189	1.760789
110	0x3fee69bc	1.8626018
111	0x3fe188e2	1.7619898
112	0x3fd452c6	1.658776
113	0x3feab299	1.8335754
114	0x3fea23ec	1.8292212
115	0x3fd6f1a6	1.6792495
116	0x3fee996a	1.8640568
117	0x3fe6bf9a	1.8027222
118	0x3fe1d117	1.7641934
119	0x3fdad5b0	1.7096462
120	0x3fd19e01	1.6376344
121	0x3fddd6eb	1.7331213
122	0x3ff12aa1	1.8841134
123	0x3fc8e0d8	1.5693617
124	0x3fe4f005	1.7885748
125	0x3feef7df	1.8669394
126	0x3fe8dec5	1.8192984
127	0x3fe2c9fc	1.7717891

bias f4 [128]
0	0x3e2d118f	0.1690123
1	0x3eafb6d8	0.34319186
2	0x3dfcd4f9	0.12345309
3	0x3e047c13	0.12937956
4	0x3e52bb17	0.20579182
5	0x3e897131	0.2684417
6	0x3ea3a8e0	0.3196478
7	0x3e94dbd0	0.29073954
8	0x3dfc58b3	0.123216055
9	0x3e87065a	0.26372033
10	0x3de1f8f9	0.11033816
11	0x3e10fb67	0.14158402
12	0x3f0c2a1f	0.5475177
13	0x3e823d2a	0.2543729
14	0x3e0ad603	0.13558201
15	0x3e836e0d	0.256699
16	0x3e70e15e	0.23523471
17	0x3e23c3ae	0.15992615
18	0x3e0f2ea6	0.13982639
19	0x3ebae10e	0.36499828
20	0x3eb85da6	0.36008948
21	0x3ec47cb4	0.3837639
22	0x3da40689	0.08009059
23	0x3e2519a8	0.16123068
24	0x3e33be12	0.17552975
25	0x3e9ac8c2	0.3023129
26	0x3de3e3b0	0.11127412
27	0x3ebb358e	0.36564296
28	0x3e4506f2	0.1924093
29	0x3ddd6f1f	0.1081221
30	0x3ddaf05c	0.10690376
31	0x3eb301b8	0.3496225
32	0x3d6e97b3	0.05825014
33	0xbd414c9e	-0.04719221
34	0x3e90f4c3	0.28311738
35	0x3d92d389	0.071692534
36	0x3e7523b6	0.23939404
37	0x3ebac55f	0.36478707
38	0x3e3e5c12	0.1858981
39	0x3ec966a4	0.3933612
40	0x3e0368b8	0.12832916
41	0x3ed9900f	0.4249272
42	0x3e8842f2	0.26613575
43	0x3e539886	0.20663652
44	0x3df7d658	0.1210143
45	0x3f04b731	0.5184203
46	0x3e915be7	0.28390428
47	0x3ec14506	0.37747973
48	0x3e060444	0.13087565
49	0x3e4cddbb	0.20006458
50	0x3ddb94f1	0.10721768
51	0x3dbffb22	0.09374072
52	0x3e3f80ab	0.18701427
53	0x3ec554c0	0.38541222
54	0x3e84b59a	0.259198
55	0x3e4b9a45	0.19883068
56	0x3ec7174d	0.38884965
57	0x3e27c0cd	0.16382141
58	0x3d870daa	0.06594403
59	0x3de496d1	0.111615784
60	0x3e29307e	0.16522405
61	0x3e8c2e0f	0.2737889
62	0x3e45ed27	0.19328748
63	0x3eb87da2	0.3603335
64	0x3db49014	0.08816543
65	0x3ddc7f13	0.10766425
66	0x3e7060f1	0.2347448
67	0x3e843e96	0.25829
68	0x3e9e08c8	0.30866075
69	0xbd874d0a	-0.06606491
70	0x3e1960b9	0.14978303
71	0x3c24686e	0.010034664
72	0x3e1e07ca	0.15432659
73	0x3e57a8b9	0.21060456
74	0x3e72cd7a	0.23711196
75	0x3e5768ef	0.21036123
76	0x3deb3221	0.11484171
77	0x3eb6b5ba	0.3568552
78	0x3eae276c	0.34014452
79	0x3f0b1fa1	0.54345137
80	0x3e1974bd	0.14985938
81	0x3d001086	0.031265758
82	0x3e22c496	0.15895304
83	0x3e885c10	0.26632738
84	0xbccfd5fe	-0.025370594
85	0x3de4e7c7	0.111770205
86	0x3ea9e922	0.3318568
87	0x3e215303	0.15754323
88	0x3d81108e	0.06301986
89	0x3d6dd362	0.05806292
90	0x3e0a13f4	0.13484174
91	0x3e478ff3	0.19488506
92	0x3e39dde6	0.18151054
93	0x3ea030d3	0.3128725
94	0x3e801754	0.25017798
95	0x3e241c55	0.16026433
96	0x3db9ca1f	0.09071755
97	0x3ebc8c3a	0.36825734
98	0x3b05d30a	0.0020419979
99	0x3e5300b0	0.20605731
100	0x3dbdae4f	0.09261762
101	0x3eb6b26e	0.35683006
102	0x3e81cd9b	0.25352177
103	0x3e99617a	0.2995718
104	0x3f263683	0.6492693
105	0x3e36a025	0.17834528
106	0x3e9d0ff9	0.3067625
107	0x3e5d90e1	0.21637298
108	0x3e2f394d	0.17111702
109	0x3e7b8722	0.24563268
110	0x3ed5b2e9	0.4173806
111	0x3e7b32e0	0.24531126
112	0x3e21bfef	0.15795873
113	0x3e8cc38e	0.27492946
114	0x3e77fb5a	0.24216977
115	0x3e964379	0.29348353
116	0x3d9b5b51	0.075857766
117	0x3ddbb0fc	0.107271165
118	0x3ea0eb3e	0.31429476
119	0x3ddda621	0.10822702
120	0x3b6274c1	0.0034554454
121	0x3e17a33b	0.14808361
122	0x3e53c92a	0.20682207
123	0x3e31ae4c	0.17351645
124	0x3e8a1cbb	0.26975045
125	0x3eb2f6c8	0.34953904
126	0x3e1e69e3	0.1547008
127	0x3db29579	0.08719916

running_mean f4 [128]
0	0x3f120ec8	0.57053804
1	0xbd8977b6	-0.06712286
2	0xbeb360e3	-0.35034856
3	0xbe96f447	-0.29483244
4	0xbe56077d	-0.20901294
5	0xbe40389b	-0.18771593
6	0xbeabd799	-0.33562925
7	0x3ef698d9	0.48163489
8	0xbeceed07	-0.40415213
9	0x3c7d5657	0.01546248
10	0xbe7303a9	-0.23731865
11	0xbf221674	-0.6331551
12	0x3ec692e2	0.38783938
13	0x3dd94d3a	0.10610433
14	0xbe4fb206	-0.20282754
15	0xbe403f67	-0.18774186
16	0x3e1f85ce	0.15578386
17	0xbeb1cb4f	-0.34725425
18	0xbe2a8f9c	-0.16656345
19	0x3df20ffa	0.118194535
20	0xbcb45577	-0.022013409
21	0x3e838e7a	0.25694638
22	0xbf40f2e9	-0.7537065
23	0xbecfbf5f	-0.40575692
24	0xbd220337	-0.039553847
25	0x3ce6a7a2	0.028156105
26	0xbec73266	-0.38905638
27	0x3d894bc9	0.06703908
28	0x3d988dba	0.07448907
29	0xbe1f3b40	-0.15549946
30	0xbed6a1ae	-0.41920227
31	0x3e35cf08	0.17754757
32	0xbedc36e3	-0.43010625
33	0xbeb4f7d8	-0.3534534
34	0xbcdcb92e	-0.02694377
35	0xbe7f436a	-0.2492806
36	0x3d49331d	0.04912101
37	0x3ca80436	0.02050982
38	0x3e088c3f	0.1333475
39	0x3ecbbe45	0.39793602
40	0xbe2638fe	-0.16232678
41	0x3e78acba	0.2428464
42	0x3d87e6a6	0.066357896
43	0xbe827c06	-0.25485247
44	0x3d2d0a58	0.042246193
45	0x3ec30ec3	0.380972
46	0xbe004fb8	-0.1253041
47	0x3e8bb9e5	0.27290264
48	0xbf31ea7d	-0.69498426
49	0xbf351141	-0.7072945
50	0xbe19216a	-0.14954153
51	0xbed23165	-0.4105331
52	0x3c42298b	0.011850725
53	0xbf185fd8	-0.59521246
54	0x3e2ab409	0.1667024
55	0xbdc3a6d7	-0.095533065
56	0x3eb17bf3	0.34664878
57	0xbee7ceac	-0.45274866
58	0xbee0c9e3	-0.43904027
59	0x3dff9487	0.12479501
60	0xbde9c6f1	-0.11414898
61	0xbf028b78	-0.5099406
62	0x3dcf9700	0.10136223
63	0x3ea1eaf2	0.31624562
64	0xbe883ffd	-0.2661132
65	0xbe7f9529	-0.24959244
66	0xbe8c1703	-0.27361307
67	0xbd345929	-0.044030342
68	0x3e73f8b0	0.23825336
69	0xbf05ea5f	-0.52310747
70	0xbe496e20	-0.19670916
71	0xbe71eac4	-0.23624712
72	0xbe2ef3eb	-0.17085235
73	0xbe0f5b97	-0.13999783
74	0xbb467166	-0.0030279993
75	0xbd43355a	-0.047658302
76	0xbea349f5	-0.31892362
77	0x3e8489d4	0.25886405
78	0xbdf2e3df	-0.11859869
79	0x3ec8ba92	0.39204842
80	0xbe408d92	-0.18804005
81	0xbe2199bd	-0.15781303
82	0xbeca3b98	-0.3949859
83	0x3e9a1fa9	0.3010228
84	0xbd922053	-0.071350716
85	0xbe4ad749	-0.19808687
86	0xbb95ca96	-0.0045712693
87	0xbe555caf	-0.20836137
88	0xbe963f6a	-0.29345256
89	0x3d113635	0.035452086
90	0xbe8bc74e	-0.27300495
91	0x3a5209c1	0.00080123177
92	0xbeb61e33	-0.35569915
93	0x3ea6b554	0.32560217
94	0x3d17511d	0.03694259
95	0xbe6b4a43	-0.22977547
96	0x3dcf0a69	0.101094075
97	0x3e486a3c	0.19571775
98	0xbf34d5b2	-0.70638573
99	0xbef0ae00	-0.4700775
100	0xbea830f0	-0.32849836
101	0xbe402646	-0.187646
102	0xbe1db88c	-0.1540243
103	0x3eacd5d4	0.33756888
104	0x3ecc09d8	0.3985126
105	0xbdb4c5cc	-0.08826789
106	0xbc3ee2e5	-0.011650776
107	0x3e96add4	0.29429495
108	0x3ec61bee	0.38693184
109	0x3e2d840c	0.16944903
110	0x3dfedc2e	0.1244434
111	0x3e55c442	0.20875648
112	0xbe459fe4	-0.19299275
113	0x3cda955e	0.026682552
114	0xbe0855de	-0.13314006
115	0xbe44ce4e	-0.19219324
116	0xbd9afabc	-0.07567355
117	0xbed208f2	-0.4102245
118	0x3e2a4cf2	0.16630915
119	0xbe1a8efe	-0.1509361
120	0xbeba6820	-0.36407566
121	0xbe830937	-0.25592968
122	0xbce6a7ef	-0.028156249
123	0x3c5fe6ad	0.013665837
124	0x3e296062	0.16540673
125	0x3e481879	0.19540586
126	0xbec3390e	-0.38129467
127	0xbe11bffa	-0.1423339

running_var f4 [128]
0	0x3ebcd9a5	0.368848
1	0x3f1c64dc	0.610914
2	0x3ecf9873	0.40545997
3	0x3ef51cd1	0.47873548
4	0x3ec0190e	0.37519115
5	0x3f159114	0.58424497
6	0x3efd99ec	0.49531496
7	0x3ecd1c17	0.40060493
8	0x3eaac19e	0.33350843
9	0x3ed5c115	0.41748872
10	0x3ee67fee	0.45019478
11	0x3eb34b6b	0.35018477
12	0x3ecf0afa	0.40438062
13	0x3f00af88	0.5026784
14	0x3f16656b	0.587485
15	0x3ed6673b	0.41875634
16	0x3ecbb5eb	0.3978723
17	0x3ee123fc	0.43972766
18	0x3ef11668	0.47087407
19	0x3ea9afa5	0.3314182
20	0x3efc6698	0.49297023
21	0x3ecbdd92	0.39817482
22	0x3ef5196a	0.47870952
23	0x3ed71a19	0.42012098
24	0x3e997105	0.2996904
25	0x3eefb7ed	0.46820012
26	0x3e9adf3e	0.30248445
27	0x3ef3a4bc	0.4758662
28	0x3f0f5368	0.5598664
29	0x3e86cc12	0.26327568
30	0x3ec91d6e	0.39280266
31	0x3f0c622d	0.54837304
32	0x3ef97264	0.48720086
33	0x3ea9331c	0.33046806
34	0x3eaff136	0.34363717
35	0x3e97b442	0.29629713
36	0x3e93e99f	0.28889176
37	0x3f3c458e	0.7354363
38	0x3f046130	0.51710796
39	0x3ec7dd2b	0.39035925
40	0x3f0298f8	0.5101466
41	0x3ee52e38	0.44761825
42	0x3ecc274a	0.39873725
43	0x3ecc9ba5	0.39962497
44	0x3ec32d96	0.38120717
45	0x3efba6fd	0.4915084
46	0x3ecfb897	0.40570518
47	0x3f1579f3	0.58389205
48	0x3eab3638	0.33439803
49	0x3f19df02	0.6010591
50	0x3ef9bd17	0.48777077
51	0x3e91d3bc	0.28481853
52	0x3ee375ae	0.4442572
53	0x3edec1a8	0.43507123
54	0x3f0d933e	0.553028
55	0x3ea8d8b6	0.32977837
56	0x3eefa8c8	0.46808457
57	0x3f0d46a8	0.5518594
58	0x3eb5f9f3	0.3554226
59	0x3e7e128b	0.24811761
60	0x3e907600	0.28215027
61	0x3ea74095	0.3266646
62	0x3e92b5b5	0.28654256
63	0x3eade24d	0.33961716
64	0x3ec2d7c0	0.3805523
65	0x3ed1d734	0.409845
66	0x3ef07a17	0.46968147
67	0x3ec49ba3	0.3839999
68	0x3ea88e71	0.32921174
69	0x3ecfe905	0.40607467
70	0x3f34f242	0.70682156
71	0x3eba4543	0.36380967
72	0x3f22c084	0.63575006
73	0x3ee3cc23	0.4449168
74	0x3eb8ba93	0.36079845
75	0x3edf6c12	0.4363714
76	0x3ec66298	0.38747096
77	0x3ea76209	0.32691982
78	0x3f0e74d5	0.5564702
79	0x3ebdba35	0.37056127
80	0x3ea0c249	0.31398228
81	0x3eaa560b	0.3326877
82	0x3ef7f924	0.48432267
83	0x3e9850e5	0.29749218
84	0x3ea84a08	0.3286898
85	0x3ed3ffe0	0.41406155
86	0x3ed3b5f5	0.4134976
87	0x3ec7e7bd	0.3904399
88	0x3ed80ccf	0.42197272
89	0x3e7ec5bf	0.24880122
90	0x3ec51da0	0.38499165
91	0x3f04451a	0.5166794
92	0x3edef6ce	0.43547672
93	0x3eccafd2	0.3997789
94	0x3ee6bb40	0.45064735
95	0x3f23cc36	0.63983476
96	0x3ea5f37a	0.3241232
97	0x3ed192bc	0.40932262
98	0x3ed83858	0.42230487
99	0x3f30d3b7	0.6907305
100	0x3ed41161	0.4141951
101	0x3ec06842	0.37579542
102	0x3eb0fab1	0.34566262
103	0x3ea6c322	0.3257075
104	0x3f0b100b	0.54321355
105	0x3ef79d79	0.4836233
106	0x3f015f1d	0.50535756
107	0x3ee77588	0.45206857
108	0x3ec1d431	0.37857202
109	0x3f03efb2	0.5153762
110	0x3e87aa56	0.26497144
111	0x3e9e5da0	0.30930805
112	0x3eb97f03	0.36229715
113	0x3edc54b4	0.43033373
114	0x3ed6842d	0.41897717
115	0x3e95544e	0.29165882
116	0x3ebfea69	0.37483528
117	0x3ee23093	0.44177684
118	0x3eb82536	0.3596589
119	0x3ee168ea	0.44025356
120	0x3ee26f84	0.44225705
121	0x3eecc448	0.462435
122	0x3ec72216	0.38893193
123	0x3e95e354	0.29275
124	0x3ed2e4b0	0.411901
125	0x3ee2a5c9	0.4426711
126	0x3edcf62c	0.43156564
127	0x3ed0b453	0.40762576

weight f4 [128, 72]
0	0xbe20e19e	-0.15711066
1	0xbd893410	-0.06699383
2	0x3dd845d4	0.10560194
3	0x3c6eaf95	0.014568229
4	0xbe7f3001	-0.24920656
5	0x3c8232af	0.015893308
6	0xbef41b98	-0.47677302
7	0xbc425eb6	-0.011863401
8	0x3ec39bd0	0.38204813
9	0xbb5c6f43	-0.0033635653
10	0x3e661c5d	0.22471757
11	0xbd52f1dc	-0.051500186
12	0x3e14b8a8	0.14523566
13	0x3dedb91d	0.11607573
14	0x3e24c8f3	0.16092281
15	0x3e3daea6	0.18523654
16	0x3dc7c7f9	0.09754939
17	0xbe1ddd82	-0.1541653
18	0x3dbea1bc	0.09308192
19	0x3e38c772	0.18044832
20	0x3d82065a	0.06348868
21	0x3db45544	0.088053256
22	0xbdf1ef8b	-0.11813267
23	0xbdfd8eb0	-0.12380731
24	0x3dab531c	0.08365461
25	0x3ced7257	0.028985186
26	0x3cda0645	0.026614318
27	0xbc8d5456	-0.017252129
28	0xbe688cd7	-0.22709976
29	0x3dd74bc4	0.10512498
30	0x3f1d3d28	0.6142144
31	0xbd0907f1	-0.03345484
32	0x3e89d407	0.26919577
33	0xbd348209	-0.044069324
34	0xbe038086	-0.12841997
35	0xbd43615d	-0.047700275
36	0x3eae65d2	0.34062058
37	0x3dbed7d6	0.09318511
38	0xbc12bfdf	-0.008956878
39	0x3e844db7	0.25840542
40	0x3c905258	0.01761739
41	0x3d49b3ec	0.049243852
42	0x3e840b2f	0.25789782
43	0xbdd43af1	-0.10362805
44	0xbdded02d	-0.1087955
45	0x3e0c3bd6	0.136947
46	0xbc96b8de	-0.018398698
47	0xbdad0e3f	-0.08449983
48	0xbe59ea38	-0.21280754
49	0x3da71615	0.08158509
50	0x3be20310	0.0068973377
51	0x3ac25159	0.0014825269
52	0x3d619503	0.05507375
53	0xbd761728	-0.060080677
54	0xbf37ce57	-0.71799225
55	0xba372897	-0.00069869444
56	0xbe11e2ab	-0.14246623
57	0xbccd4f64	-0.02506227
58	0xbd5ecc45	-0.054394025
59	0xbe29b5c9	-0.16573252
60	0x3eff032e	0.49807113
61	0xbdc417ad	-0.09574828
62	0x3d8fd671	0.07023323
63	0x3dbb7620	0.0915339
64	0xbc872162	-0.01649541
65	0xbe8be10a	-0.2732013
66	0xbbd1e892	-0.0064058984
67	0xbe1dd75c	-0.15414184
68	0xbe2cdda0	-0.16881418
69	0x3e721634	0.23641282
70	0x3e80b310	0.25136614
71	0x3e5d4007	0.21606456
72	0x3ccc2b60	0.024923027
73	0x3e513341	0.20429708
74	0xbe69cefe	-0.22832868
75	0x3d201d5a	0.03909049
76	0x3e89c3a1	0.26907066
77	0xbd493d65	-0.049130816
78	0x3ec127f0	0.37725782
79	0xbc32cda3	-0.010913285
80	0x3d69a91b	0.057046037
81	0x3cb2bf8d	0.021819854
82	0x3cb584e9	0.022158103
83	0x3d8adbb1	0.06780184
84	0xbe76c5ca	-0.24098888
85	0xbd07bb28	-0.03313747
86	0xbd326632	-0.043554492
87	0xbe480fa9	-0.19537224
88	0x3d4a02dd	0.049319137
89	0x3e9fac34	0.31186068
90	0xbdd84cc3	-0.10561516
91	0x3b75b517	0.003749197
92	0x3c0b90c4	0.0085184015
93	0x3d9eab16	0.07747476
94	0xbd92b8de	-0.07164167
95	0x3e27c78d	0.16384716
96	0x3d06700b	0.032821696
97	0xbd221268	-0.039568335
98	0xbd01257c	-0.03152989
99	0x3cfe7eac	0.031066261
100	0x3e7b02c1	0.2451277
101	0xbcc66d3c	-0.024222009
102	0x3dc640de	0.09680341
103	0xbcf8cd0c	-0.030371211
104	0xbf0e7b03	-0.5565645
105	0xbc2ba9b0	-0.010477468
106	0x3e9ba1ca	0.30396873
107	0xbd95a449	-0.073067255
108	0xbc700dfb	-0.014651771
109	0xbd991d8a	-0.07476337
110	0x3d80c2dd	0.06287167
111	0xbe345ddf	-0.17613934
112	0x3d87a62c	0.06623492
113	0x3e1322fa	0.14368811
114	0xbe4cbc1a	-0.1999363
115	0x3cff3778	0.03115438
116	0x3e254c4b	0.16142385
117	0xbe4483ef	-0.19190954
118	0x3eb1bf1a	0.3471611
119	0xbe9cdaeb	-0.3063577
120	0x3e20bcc7	0.15697013
121	0x3c86c783	0.016452556
122	0xbe06d32b	-0.13166492
123	0x3cb8a592	0.022539888
124	0xbd7dd09a	-0.061966516
125	0x3dfebbd0	0.12438166
126	0x3f6d03e6	0.92584074
127	0x3c8ba108	0.01704456
128	0x3dd139d2	0.102161065
129	0x3b402de7	0.0029324235
130	0x3e8581d7	0.26075622
131	0xbc8db698	-0.017298982
132	0xbe43fb06	-0.19138727
133	0xbbb018b4	-0.0053740386
134	0x3bead76c	0.0071667936
135	0xbd7598a7	-0.059960034
136	0x3e069d86	0.13146028
137	0xbca646e1	-0.02029747
138	0x3e3d53b1	0.18488957
139	0x3e282355	0.16419728
140	0x3d32227d	0.04348992
141	0x3d26617f	0.040620323
142	0xbe10cb22	-0.14139989
143	0xbd9666cd	-0.073438264
144	0xbda4fcef	-0.08056056
145	0x3d37d824	0.044883862
146	0xbcdff907	-0.027340425
147	0xbc6d8af0	-0.014498457
148	0xbe98401b	-0.2973641
149	0xbd015419	-0.031574342
150	0x3e70d4df	0.23518704
151	0xbb8f91af	-0.0043813805
152	0xbe5911be	-0.21198174
153	0xbc28b27f	-0.010296463
154	0x3e866b38	0.26253676
155	0xbbf71c97	-0.00754125
156	0x3ea25871	0.317081
157	0x3cd75701	0.026286604
158	0xbd8b4da0	-0.06801915
159	0x3da63c5f	0.081169836
160	0x3d0d7a71	0.034540597
161	0x3d385847	0.045006063
162	0xbe6b5bbf	-0.22984217
163	0xbd4c74d8	-0.04991612
164	0xbe06b4a8	-0.13154852
165	0x3dd67e6e	0.10473333
166	0x3c2a7671	0.010404215
167	0x3da52e5c	0.08065483
168	0xbc0c050a	-0.008546123
169	0xbc93ef02	-0.018058304
170	0x3d20354f	0.03911334
171	0xbce34de8	-0.02774711
172	0xbc5be7c7	-0.013421959
173	0xbaf50358	-0.0018693013
174	0xbe5c9ed9	-0.2154497
175	0x3caf2a3e	0.021382447
176	0xbe06af06	-0.13152704
177	0xbcaef6ef	-0.021357981
178	0x3ebbf46d	0.3670992
179	0x3cccd889	0.025005596
180	0x3e54bdd4	0.20775539
181	0xbcf94e22	-0.030432764
182	0x3c601b82	0.013678433
183	0x3e8603bc	0.26174724
184	0x3c9cd8d5	0.019146362
185	0xbe95c0ec	-0.2924875
186	0x3d2aa6e5	0.04166307
187	0x3e3425c2	0.17592528
188	0xbd99a3a6	-0.075019166
189	0xbe870197	-0.263684
190	0xbe305eda	-0.17223683
191	0xbea70e43	-0.32628068
192	0xbd7ee673	-0.062231492
193	0x3d818d85	0.06325821
194	0xbd25d46a	-0.040485777
195	0xba368fb2	-0.00069641613
196	0xbe0b5f20	-0.13610506
197	0xbdca47c2	-0.09876968
198	0x3ea3dc3f	0.32003972
199	0xbc598b2c	-0.01327781
200	0x3dfdc08f	0.12390243
201	0x3c151d3b	0.009101207
202	0xbeb7f4b7	-0.3592889
203	0xbca72fab	-0.020408472
204	0xbee93e55	-0.45555368
205	0xbc8a9df5	-0.016921023
206	0xbe0258e4	-0.12729222
207	0x3e889fa2	0.2668429
208	0xbd30061f	-0.042974588
209	0xb8b81a8f	-8.7787506e-05
210	0x3e3866d8	0.18007982
211	0xbdb6fa29	-0.08934433
212	0x3d4a79d3	0.049432587
213	0xbe4dde67	-0.20104371
214	0xbdb61fa4	-0.08892754
215	0xbf13cb8a	-0.5773245
216	0xbac19860	-0.0014770143
217	0x3d6e7106	0.058213256
218	0x3e100095	0.14062722
219	0x3ce2f385	0.02770401
220	0x3dcfecc8	0.10152584
221	0x3dc8742f	0.09787785
222	0x3c4123cc	0.01178832
223	0xbc89220e	-0.016739871
224	0x3c0a84ff	0.00845456
225	0x3ca380b4	0.019958831
226	0xbec36f2c	-0.38170755
227	0xbcb78105	-0.022400388
228	0x3e75e9f7	0.24015032
229	0xbd47b31d	-0.0487548
230	0x3cdc0340	0.026857018
231	0xbd8ad9b0	-0.06779802
232	0x3d12bf98	0.03582725
233	0xbebe2560	-0.3713789
234	0xbd67f8fb	-0.05663393
235	0xbe908994	-0.28229964
236	0xbe2cb693	-0.16866522
237	0x3d080b86	0.033214115
238	0x3dd74b18	0.1051237
239	0xbe531ae9	-0.20615734
240	0xbda3cb41	-0.07997752
241	0x3d4aa3ea	0.049472727
242	0xbb63a9b2	-0.0034738597
243	0xbb84d329	-0.0040534926
244	0xbe2219de	-0.1583018
245	0xbcf91315	-0.030404607
246	0xbdfa5cdd	-0.122247435
247	0x3cd25043	0.025673037
248	0x3e851b88	0.25997567
249	0xbc6921e7	-0.014229274
250	0xbe17b671	-0.1481569
251	0x3c8b8554	0.01703135
252	0xbd8aa81a	-0.06770344
253	0x3e657390	0.22407365
254	0x3caf5787	0.021404041
255	0xbdd48d9b	-0.103785716

bias f4 [128]
0	0xbcf40e08	-0.029791847
1	0xbd17c241	-0.03705049
2	0xbddc7ebe	-0.10766362
3	0xbcb757ad	-0.022380674
4	0x3d80a5ee	0.062816486
5	0x3d6139a8	0.054986626
6	0x3c12248b	0.008919845
7	0x3daa93b1	0.08328951
8	0x3cebfa5e	0.028805908
9	0xbddcdf89	-0.107848234
10	0xbc25814c	-0.010101628
11	0xbd069b64	-0.032863036
12	0x3da21fd0	0.07916224
13	0x3d75cc0c	0.060009047
14	0xbcec16fd	-0.028819555
15	0x3da1736f	0.07883345
16	0xbde8ed10	-0.11373341
17	0xbdc93324	-0.098242074
18	0x3db4d356	0.08829372
19	0xbd78ec03	-0.060771953
20	0xbdadbc34	-0.084831625
21	0xbcb389c2	-0.021916274
22	0xbd6dcb22	-0.05805505
23	0x3ccafae6	0.02477784
24	0xbdb4577e	-0.0880575
25	0xbc934f05	-0.017982015
26	0x3def5b25	0.11687306
27	0x3dd1e850	0.10249388
28	0x3d83cd65	0.0643566
29	0x3c3095e9	0.010777929
30	0xbde7a856	-0.113114044
31	0xbd63a6f9	-0.05557916
32	0x3c667cba	0.014067823
33	0xbddafdf4	-0.10692969
34	0xbda1aef6	-0.07894699
35	0x3db5e348	0.08881241
36	0x3caee73c	0.021350496
37	0x3daf0b08	0.08547026
38	0xbd94a931	-0.07258833
39	0xbce3c9dd	-0.027806217
40	0xbd93e2fc	-0.07221028
41	0xba048e76	-0.0005056629
42	0xbdc21adc	-0.09477779
43	0x3dbd5ef4	0.092466265
44	0xbdb0b7f4	-0.08628836
45	0xbce85cb9	-0.028364526
46	0xbc9a0a66	-0.018803786
47	0x3da0218b	0.07818898
48	0x3d829a35	0.06377069
49	0x3d591962	0.053002723
50	0x3d907f81	0.070555694
51	0x3db028bf	0.08601522
52	0x3d69b6ee	0.05705922
53	0x3db08f9d	0.08621142
54	0xbde5d33b	-0.1122193
55	0x3de24957	0.11049145
56	0x3dd4c7d7	0.10389679
57	0x3da7dc5e	0.081963286
58	0xbd0a089f	-0.033699628
59	0x3d6cbb03	0.057795536
60	0xbd3a4a19	-0.04548082
61	0xbd862abb	-0.06551119
62	0xbd77b44a	-0.06047467
63	0xbcc43586	-0.023951303
64	0xbcdc668b	-0.026904365
65	0x3dd4f1b7	0.10397666
66	0xbdc2304d	-0.09481869
67	0x3d98fcec	0.07470116
68	0xbd2afc60	-0.04174459
69	0x3d8bf2d5	0.06833426
70	0x3d7710e4	0.060318843
71	0xbdd90805	-0.10597233
72	0xbd8ac752	-0.067762986
73	0xbdb551c7	-0.088534884
74	0xbdc069a5	-0.0939515
75	0x3d3ea23f	0.04654145
76	0xbd21e8e3	-0.03952874
77	0xbb0d5174	-0.0021563442
78	0x3dc2b99d	0.09508059
79	0xbdbab3a9	-0.09116299
80	0xbd1d94e0	-0.038472056
81	0x3cee0d9a	0.02905922
82	0x3d5cb316	0.053881727
83	0xbc8d070c	-0.017215274
84	0x3dee29f6	0.11629097
85	0xbd8c3d30	-0.06847608
86	0xbc25fe99	-0.010131502
87	0xbd35b67d	-0.044363488
88	0xbc1b0492	-0.009461539
89	0xbda493b7	-0.08035987
90	0xbc85528b	-0.016274711
91	0xbcfbd55f	-0.030741392
92	0xbd9f22b6	-0.077702925
93	0x3dbca230	0.09210622
94	0xbdac6081	-0.08416844
95	0x3c275852	0.010213928
96	0x3d895c86	0.067071006
97	0x3dca23b4	0.09870091
98	0x3b2cdc1d	0.0026376315
99	0x3db768e7	0.089555554
100	0x3c14a33e	0.009072123
101	0xbd8946c8	-0.067029536
102	0xbbce524d	-0.006296432
103	0x3d441d1c	0.047879323
104	0xbdb73722	-0.089460626
105	0x3d90e64c	0.07075176
106	0x3d8bb268	0.06821138
107	0x3dafb651	0.08579696
108	0xbdb8bef1	-0.09020794
109	0x3d384f2c	0.04499738
110	0x3d3bb7fd	0.04582976
111	0xbcc043b1	-0.023469778
112	0xbd07ca25	-0.033151764
113	0xbd094163	-0.033509623
114	0xbda6e031	-0.0814823
115	0x3da39616	0.07987611
116	0xbd643311	-0.055712763
117	0x3cfa7901	0.030575277
118	0x3cf8ffb6	0.03039537
119	0x3db182d7	0.08667534
120	0x3d45d8e2	0.04830254
121	0x3d673483	0.056446563
122	0xbdcb849f	-0.09937405
123	0xbddddf97	-0.10833662
124	0xbccb8289	-0.024842517
125	0xbdc92015	-0.09820572
126	0xbdee829a	-0.11646004
127	0x3c570c76	0.0131255295

weight f4 [128, 128]
0	0x3e19f8ce	0.15036318
1	0xbd35fc76	-0.04443022
2	0x3d985c67	0.07439499
3	0xbd35f543	-0.044423353
4	0x3e0458c8	0.12924492
5	0xbd145157	-0.036210384
6	0x3d90e0dc	0.070741385
7	0x3daa2414	0.083076626
8	0xbd59aac7	-0.05314138
9	0xbd508417	-0.05090722
10	0x3d09ba51	0.03362495
11	0xbdc77b63	-0.09740331
12	0x3d15881c	0.036506757
13	0xbd905da6	-0.07049112
14	0xbd4a0eb4	-0.04933043
15	0x3ddb9e6e	0.107235774
16	0x3db42c29	0.087974854
17	0x3d556ce8	0.052105814
18	0x3e0da3e0	0.13832045
19	0x3d03e6b2	0.03220243
20	0x3e0ef6d0	0.13961339
21	0xbd787254	-0.060655907
22	0xbd8b9cd5	-0.06817023
23	0x3d7a639a	0.061130144
24	0x3cf663f6	0.030076962
25	0xbd061965	-0.03273906
26	0xbda6bf9d	-0.08142016
27	0xbd1e1670	-0.038595617
28	0xbe0b17f3	-0.13583355
29	0x3d272967	0.04081097
30	0x3d103ac8	0.03521231
31	0x3daf8072	0.08569421
32	0xbc8b5d37	-0.017012222
33	0x3d084ace	0.033274464
34	0x3dfd802b	0.12377962
35	0x3dd2f0ff	0.102998726
36	0x3cb70b90	0.02234438
37	0xbd36af7c	-0.04460095
38	0x3de7f581	0.11326123
39	0x3d472c41	0.04862619
40	0xbd88ae10	-0.06673825
41	0x3d9631c1	0.073337086
42	0x3bda4a45	0.0066616856
43	0x3d33d832	0.04390735
44	0x3d7dd85d	0.06197392
45	0x3d8988a3	0.067155145
46	0x3de73e3b	0.112911664
47	0x3c6c21d2	0.01441236
48	0x3cb5c042	0.022186402
49	0xbe3098a7	-0.17245732
50	0x3d2e96e2	0.04262436
51	0x3de4c73f	0.11170816
52	0x3e0ae244	0.13562876
53	0x3cd4e953	0.025990164
54	0xbc463b89	-0.012099155
55	0x3d07478d	0.03302722
56	0xbb2dcb1f	-0.0026518775
57	0x3d0537af	0.032523807
58	0x3dbc0de7	0.09182339
59	0xbcf9f374	-0.030511595
60	0x3cd5d5cb	0.026102921
61	0x3cca71e0	0.024712503
62	0xbdb28602	-0.08716966
63	0x3d991e82	0.07476522
64	0x3d007058	0.03135714
65	0x3dab18bf	0.08354329
66	0x3db30a2f	0.08742177
67	0x3c4adbbf	0.012381493
68	0x3dad650f	0.08466541
69	0x3df49ab6	0.11943571
70	0x3dc964c7	0.09833675
71	0x3da7cf36	0.08193819
72	0xbe165b68	-0.14683306
73	0xbd10c65c	-0.03534542
74	0x3e0c3241	0.13691045
75	0x3ddbb670	0.107281566
76	0x3d143bc4	0.03618981
77	0x3d29cfe5	0.04145803
78	0x3e25ca0a	0.16190353
79	0xbd4d42f3	-0.050112676
80	0x3cd7c409	0.026338594
81	0x3d742ae8	0.05961123
82	0xbcf880d6	-0.030334871
83	0x3d8b09e6	0.06788997
84	0x3d86ff3d	0.065916516
85	0xbdec8df6	-0.115505144
86	0x3abb7552	0.0014301932
87	0x3b4e2ba3	0.0031459115
88	0x3e02276b	0.1271035
89	0x3d2ff5b6	0.042958938
90	0x3dcd21d2	0.10016216
91	0x3e2db8f4	0.16965085
92	0x3d861c52	0.065483704
93	0x3b5773db	0.0032875452
94	0x3dbe272c	0.09284815
95	0x3dc0ac03	0.09407809
96	0xbdd9593c	-0.10612723
97	0x3e1ea9e2	0.15494493
98	0x3bddd615	0.0067699053
99	0xbd6eecf9	-0.058331463
100	0xbc640a37	-0.013918451
101	0x3caf48e5	0.021397064
102	0x3bc7e721	0.0061005508
103	0x3db90ffb	0.09036251
104	0x3cd8ecad	0.026480043
105	0x3a5f4bba	0.0008518059
106	0x3e3eaf03	0.18621449
107	0xbd311fd0	-0.04324323
108	0x3c9f145d	0.01941889
109	0x3de77dfe	0.11303328
110	0x3e07ea39	0.13272943
111	0xbd83233d	-0.064032055
112	0x3c9aa45c	0.0188772
113	0x3d2d1da2	0.04226459
114	0xbd25e5e2	-0.040502436
115	0xbb24bfd8	-0.0025138762
116	0x3da7aca4	0.081872255
117	0x3d481967	0.04885235
118	0xbdaeac91	-0.08529008
119	0xbda8aac9	-0.082357
120	0xbc78798f	-0.015165701
121	0xbe0587fa	-0.13040152
122	0x3dc2963a	0.0950131
123	0xbd5c1a48	-0.053736
124	0xbd134af8	-0.035960168
125	0xbce1e061	-0.027572813
126	0xbce70b8c	-0.028203748
127	0x3de2c18c	0.110720724
128	0x3db87cc0	0.09008169
129	0xbd7eabcd	-0.06217556
130	0xbe91b83b	-0.2846087
131	0x3c808182	0.015686754
132	0xbd5ef1fd	-0.054429997
133	0x3d0377e8	0.032096773
134	0xbdebc960	-0.115130186
135	0x3c771704	0.015081171
136	0xbd988b39	-0.074484296
137	0xbe3c4c96	-0.1838859
138	0xbbf3d6d3	-0.0074413805
139	0xbd5e88f6	-0.054329835
140	0xbca0e048	-0.019638196
141	0xbd415623	-0.047201287
142	0xbd111b95	-0.035426695
143	0xbc2dbe73	-0.010604489
144	0xbd521759	-0.051291797
145	0x3cd1763f	0.02556908
146	0xbb313179	-0.0027037545
147	0xbd85cec8	-0.06533581
148	0xbd864b92	-0.06557383
149	0x3db15095	0.08657948
150	0x3d6b750a	0.057484664
151	0xbdbecfc2	-0.093169704
152	0x3dde8efc	0.10867116
153	0xbcdeda92	-0.027203832
154	0xbdbf40b8	-0.09338516
155	0xbdb3d86f	-0.08781516
156	0x3cea120e	0.028573062
157	0x3daa34f5	0.08310882
158	0x3d5aa100	0.053376198
159	0xbd233030	-0.039840877
160	0x3d4a6bf0	0.049419343
161	0x3c973fc6	0.018463027
162	0x3be6c216	0.00704218
163	0x3bbef33f	0.005827337
164	0x3cb3a274	0.02192805
165	0xbd6e8413	-0.058231425
166	0xbe5ddf23	-0.21667151
167	0xbd454284	-0.048159137
168	0x3da682e3	0.081304334
169	0x3d6ae2b5	0.05734511
170	0x3d246d5d	0.04014336
171	0xbca82455	-0.020525137
172	0xbe5829cb	-0.21109693
173	0xbdcb5f59	-0.099302955
174	0xbd3b52fc	-0.045733437
175	0xbc8e003c	-0.017334096
176	0x3cbe26d9	0.023211883
177	0x3d597c6c	0.053097174
178	0xbb7c7ef8	-0.0038527828
179	0x3ca30858	0.01990144
180	0xbd25826b	-0.04040758
181	0xbc8e9cf3	-0.017408824
182	0xbd70994d	-0.05873995
183	0x3bdb3abe	0.006690352
184	0xbd1df5ac	-0.03856437
185	0x3d8aafce	0.06771813
186	0xbd8d18ec	-0.06889519
187	0x3e0971bc	0.13422292
188	0xbe0d3e83	-0.13793378
189	0x3c9b6ef0	0.018973798
190	0x3dccb5bf	0.09995603
191	0xbe23b53e	-0.15987107
192	0xbac0feb7	-0.0014724348
193	0xbae6ba9f	-0.0017603225
194	0xbd9bf2ef	-0.07614695
195	0x3d151328	0.036395222
196	0xbd92b36f	-0.071631305
197	0x3d482d73	0.04887147
198	0xba9a0db1	-0.0011753348
199	0x3dbce555	0.09223429
200	0x3d744b40	0.059642076
201	0x3970ce0e	0.00022964945
202	0xbd8ff74c	-0.0702959
203	0x3d005df1	0.03133959
204	0x3a6ee257	0.0009112707
205	0x3d2b1dfb	0.04177664
206	0x3e28719c	0.16449589
207	0xbd05cf53	-0.032668423
208	0x3c3d8dcc	0.011569452
209	0xbe293add	-0.16526361
210	0xbbd57a41	-0.006514818
211	0xbcdf8863	-0.027286714
212	0x3d81cdfc	0.063381165
213	0x3d54a509	0.051915202
214	0x3d68eea6	0.056868218
215	0xbb8b08cf	-0.0042429934
216	0x3d9a288b	0.07527264
217	0x3e016bf0	0.12638831
218	0x3e72b8fe	0.23703381
219	0xbd7c58bb	-0.061608057
220	0xbcca70cc	-0.024711989
221	0x3dc146e5	0.0943735
222	0xbde600e0	-0.11230636
223	0x3d79a709	0.060950313
224	0xbd17a70e	-0.03702455
225	0xbcf78e42	-0.030219201
226	0xbda5f404	-0.08103183
227	0x3d828b34	0.06374207
228	0xbd7f5abc	-0.06234239
229	0x3d396412	0.04526145
230	0xbde8b5fd	-0.113628365
231	0x3d738cdd	0.05946051
232	0xbe4a4bae	-0.19755432
233	0xbe3da75c	-0.18520874
234	0xbd115a54	-0.035486534
235	0xbdacddfc	-0.08440778
236	0xbd934217	-0.0719034
237	0xbdff2b0d	-0.12459383
238	0x3d7ee8bc	0.06223367
239	0xbb5a6559	-0.0033324568
240	0xbd734784	-0.059394374
241	0x3d32dba8	0.04366651
242	0xbd5c49ad	-0.0537812
243	0xbc211289	-0.009831079
244	0xbd415700	-0.04720211
245	0xbd7ee1b0	-0.06222695
246	0x3e43e608	0.19130719
247	0xbd995d0c	-0.074884504
248	0x3c094207	0.008377559
249	0xbe25b048	-0.16180527
250	0x3d120a15	0.035654146
251	0x3cf897be	0.030345794
252	0xbd89166d	-0.066937305
253	0xbd3a298c	-0.04544978
254	0xbd25fec2	-0.04052616
255	0x3d569566	0.05238857

bias f4 [128]
0	0x3d46b5b4	0.04851313
1	0x3d366bdf	0.044536468
2	0xbd620d50	-0.055188477
3	0xbceaf065	-0.028679082
4	0xbd9a94ca	-0.075479105
5	0xbd9de89e	-0.07710384
6	0xbd6caf3b	-0.0577843
7	0xbc171b97	-0.0092228865
8	0x3d50cdc9	0.050977502
9	0x3d79647f	0.060886856
10	0x3d4932cd	0.049120713
11	0x3d73e993	0.059548926
12	0x3d5950ef	0.0530557
13	0x3caee03a	0.021347154
14	0x3b29fa73	0.0025936633
15	0xbd979eef	-0.07403361
16	0x3da90dcc	0.08254585
17	0xbd32b53e	-0.043629877
18	0x3da29bbf	0.079398625
19	0x3d9f8f64	0.077910215
20	0x3d55eb2f	0.05222624
21	0xbcac04c4	-0.020998366
22	0x3da6a6c8	0.0813728
23	0xbdb1966d	-0.086712696
24	0x3d68c254	0.05682595
25	0x3d83db29	0.06438286
26	0xbd03cd6b	-0.032178324
27	0x3ae3e4bc	0.0017386894
28	0xbcaa782b	-0.020809254
29	0x3db45acb	0.0880638
30	0xbd0f0ab1	-0.034922305
31	0xbc081d23	-0.008307728
32	0xbd205405	-0.039142627
33	0x3b9d45fa	0.0047996016
34	0xbce40006	-0.027832042
35	0x3d9c2cc2	0.076257244
36	0xbd0611ed	-0.03273194
37	0x3ca6aebc	0.020346992
38	0x3d9eb67c	0.0774965
39	0x3d8f344c	0.06992397
40	0x3d2a355d	0.041554797
41	0xbbdf36a0	-0.0068119317
42	0xbc9e6aee	-0.019338097
43	0xbd776fea	-0.060409464
44	0xbd29a2ef	-0.04141515
45	0x3c218189	0.009857544
46	0xbcff4334	-0.031159975
47	0xbbf5d7d8	-0.007502537
48	0xbd4e7a76	-0.050409757
49	0xbdb3993b	-0.08769461
50	0xbd2b9953	-0.04189427
51	0xbd9f412e	-0.07776104
52	0x3d321c66	0.043484114
53	0xbda3997b	-0.079882585
54	0x3d75dfda	0.060027935
55	0xbc83f1ee	-0.016106572
56	0x3d9b90e5	0.07595996
57	0xbd895e7b	-0.06707474
58	0xbcc08b68	-0.023503974
59	0xbc7ccda0	-0.015429884
60	0xbd9b463d	-0.07581756
61	0xbdaf4d65	-0.08559684
62	0xbd0195c4	-0.03163697
63	0x3d3b5e6e	0.045744352
64	0xbd8d1d40	-0.068903446
65	0xbd713401	-0.058887485
66	0xbd476a7d	-0.04868554
67	0xbd06d17b	-0.03291462
68	0x3d475b5e	0.04867112
69	0xbc5d67ad	-0.013513488
70	0x3c89ec98	0.01683645
71	0xbcee5762	-0.029094402
72	0xbcbba0eb	-0.02290388
73	0x3d42adc9	0.047529016
74	0xbd0f8981	-0.035043243
75	0x3dadf9fa	0.08494945
76	0x3dae55ff	0.08512496
77	0x3d769279	0.06019828
78	0x3ceed09d	0.029152209
79	0x3d22d225	0.03975119
80	0xbd2ec405	-0.042667408
81	0xbd2f0034	-0.042724803
82	0xbd341e75	-0.04397436
83	0x3d0d4d2c	0.034497425
84	0x3d89be54	0.06725755
85	0xbca7d9a8	-0.020489529
86	0xbd0f12d9	-0.034930084
87	0xbd9aea9b	-0.07564279
88	0xbd32961f	-0.043600198
89	0x3d90f1f5	0.070774
90	0xbd15620e	-0.036470465
91	0xbd5b4105	-0.053528804
92	0x3d604c44	0.054760233
93	0x3d16c537	0.036809172
94	0xbd015005	-0.031570453
95	0x3d748980	0.059701443
96	0x3cb54884	0.022129305
97	0x3d0979a2	0.033563264
98	0xbd9ebbc3	-0.077506565
99	0xbd75e409	-0.060031924
100	0x3c2515e6	0.010076022
101	0x3ce388d6	0.02777521
102	0x3d3ecd65	0.0465826
103	0x3d9e204f	0.07721006
104	0xbd42a8a8	-0.047524124
105	0xbc793c47	-0.015212125
106	0x3d1150df	0.035477515
107	0x3da8fba3	0.08251121
108	0x3d29c53a	0.041447856
109	0xbad6bf34	-0.0016383887
110	0xbd2159c9	-0.039392266
111	0xbd86d71d	-0.06583998
112	0xbda56abc	-0.080769986
113	0x3d179424	0.037006512
114	0xbd2805b0	-0.04102105
115	0xbd3ab9f5	-0.0455875
116	0x3d80debb	0.062924825
117	0xbd8a028d	-0.06738768
118	0x3d93fdea	0.07226165
119	0xbd7e6867	-0.062111285
120	0x3dac6feb	0.08419784
121	0x3d1c8733	0.038214874
122	0x3db9cd8c	0.09072408
123	0xbd4546f1	-0.048163358
124	0x3b3b3b78	0.0028569382
125	0x3d9c00c4	0.076173335
126	0x3d89f401	0.06735993
127	0x3d6a9fdb	0.057281356
