temp/model/model.pth (torch, 371646 bytes, 14 tensors)

weight f4 [256]
0	0x3f69c6b1	0.91318804
1	0x3f8800e5	1.0625273
2	0x3f72029c	0.9453523
3	0x3f8b1ccb	1.0868162
4	0x3f8b9804	1.0905766
5	0x3f7929a1	0.97329146
6	0x3f893e19	1.0722076
7	0x3f61d9e2	0.8822309
8	0x3f8ceb95	1.1009394
9	0x3f76d83a	0.96423686
10	0x3f73051f	0.9492969
11	0x3f70b4e4	0.9402602
12	0x3f90cb76	1.1312091
13	0x3f8f93b1	1.1216947
14	0x3f6ca8f7	0.9244532
15	0x3f895d83	1.0731663
16	0x3f821a39	1.0164253
17	0x3f85f285	1.0464636
18	0x3f5b9ca8	0.85785913
19	0x3f8a36e3	1.0798
20	0x3f8804d5	1.0626475
21	0x3f61808e	0.88086784
22	0x3f834205	1.0254523
23	0x3f771dba	0.96529734
24	0x3f839db6	1.0282505
25	0x3f88c437	1.068488
26	0x3f8defa3	1.1088756
27	0x3f9659d9	1.1746169
28	0x3f71e3a9	0.94488007
29	0x3f79b30f	0.97538847
30	0x3f518036	0.8183626
31	0x3f7b6afe	0.9821013
32	0x3f6bd4c3	0.92121524
33	0x3f86ea42	1.054024
34	0x3f97ad7b	1.1849817
35	0x3f6544b6	0.8955797
36	0x3f5b84e6	0.8574966
37	0x3f8921ec	1.0713477
38	0x3f6093c3	0.87725466
39	0x3f791f88	0.9731374
40	0x3f804255	1.0020243
41	0x3f85c260	1.0449944
42	0x3f48bcb4	0.7841294
43	0x3f607b28	0.8768792
44	0x3f8d7ec2	1.1054308
45	0x3f68ff40	0.9101448
46	0x3f7e2b4b	0.9928481
47	0x3f6664de	0.8999766
48	0x3f7b6388	0.9819875
49	0x3f7cefb9	0.9880329
50	0x3f8466c4	1.0343862
51	0x3f8cc674	1.0998063
52	0x3f7c5685	0.9856952
53	0x3f821cff	1.0165099
54	0x3f8ffe7d	1.1249539
55	0x3f6d13e2	0.92608464
56	0x3f4bbd8e	0.7958611
57	0x3f5b0a18	0.85562277
58	0x3f7f6478	0.9976268
59	0x3f694b1e	0.91130245
60	0x3f75b8d2	0.9598514
61	0x3f84d418	1.0377226
62	0x3f7cd17e	0.9875716
63	0x3f8487f8	1.0353994
64	0x3f8462d8	1.0342665
65	0x3f8521c7	1.0400933
66	0x3f72be77	0.94821876
67	0x3f703386	0.9382862
68	0x3f647b1e	0.8925036
69	0x3f873ea8	1.0565996
70	0x3f8547c0	1.0412521
71	0x3f690d7b	0.91036195
72	0x3f89e245	1.0772177
73	0x3f92f947	1.1482323
74	0x3f6f8587	0.9356312
75	0x3f98a349	1.1924831
76	0x3f8b1974	1.0867143
77	0x3f8382fe	1.0274351
78	0x3f8ddb20	1.1082497
79	0x3f8305a6	1.0236099
80	0x3f95a9b9	1.169242
81	0x3f80d3a0	1.0064583
82	0x3f86c919	1.053012
83	0x3f7aa546	0.9790844
84	0x3f67acf9	0.9049831
85	0x3f82a099	1.020526
86	0x3f7df06d	0.99194986
87	0x3f81c011	1.0136739
88	0x3f71f1b2	0.9450942
89	0x3f852233	1.0401062
90	0x3f7c4452	0.9854175
91	0x3f49e4e9	0.78864914
92	0x3f889c3b	1.0672678
93	0x3f809db8	1.0048132
94	0x3f51e990	0.81997013
95	0x3f904378	1.127059
96	0x3f864ded	1.0492531
97	0x3f721fca	0.94579756
98	0x3f46d7fe	0.7767333
99	0x3f836ed8	1.0268202
100	0x3f71af82	0.9440843
101	0x3f743eab	0.95408124
102	0x3f86af01	1.0522157
103	0x3f91625b	1.1358141
104	0x3f7c6a32	0.9859954
105	0x3f86e5b9	1.0538856
106	0x3f7b87f9	0.9825435
107	0x3f87eccc	1.061914
108	0x3f7c70c6	0.9860958
109	0x3f663f87	0.89940685
110	0x3f63218f	0.8872308
111	0x3f72f6d0	0.94907856
112	0x3f7bb7cc	0.98327327
113	0x3f69b7ed	0.91296273
114	0x3f6fc2b5	0.93656474
115	0x3f7c33af	0.9851636
116	0x3f74f52a	0.9568659
117	0x3f827ebb	1.0194925
118	0x3f7ee12a	0.99562323
119	0x3f9a97bc	1.2077556
120	0x3f8108b1	1.0080777
121	0x3f7168e4	0.94300675
122	0x3f7395b8	0.9515033
123	0x3f8f5870	1.1198864
124	0x3f6abc4f	0.91693586
125	0x3f824333	1.0176758
126	0x3f520650	0.8204088
127	0x3f851b72	1.0399001
128	0x3f919290	1.1372852
129	0x3f839fc2	1.0283129
130	0x3f51533a	0.8176762
131	0x3f964c21	1.1741983
132	0x3f606fb7	0.87670463
133	0x3f7ca567	0.98689884
134	0x3f62c27d	0.88578016
135	0x3f7ab380	0.97930145
136	0x3f8dc3ed	1.1075417
137	0x3f7f2cbc	0.99677634
138	0x3f893bfb	1.072143
139	0x3f573a1b	0.84073037
140	0x3f86ea15	1.0540186
141	0x3f7e1985	0.9925769
142	0x3f8783fc	1.0587153
143	0x3f8385ca	1.0275204
144	0x3f6cea99	0.9254547
145	0x3f6a0fe8	0.9143052
146	0x3f8eee4f	1.1166476
147	0x3f79bf2d	0.97557336
148	0x3f842a63	1.0325435
149	0x3f7406b2	0.95322716
150	0x3f70f02b	0.9411647
151	0x3f8b38d6	1.087672
152	0x3f7504ee	0.9571065
153	0x3f8a6426	1.0811813
154	0x3f4ee305	0.80815154
155	0x3f885fc5	1.0654227
156	0x3f8f0cdc	1.1175799
157	0x3f8901d2	1.070368
158	0x3f7847b4	0.9698441
159	0x3f89aca7	1.0755814
160	0x3f63aca3	0.889353
161	0x3f7891e7	0.9709763
162	0x3f8410f2	1.0317671
163	0x3f862e8d	1.0482956
164	0x3f77d156	0.96803796
165	0x3f6df0f2	0.9294578
166	0x3f74cb97	0.95623153
167	0x3f872370	1.055769
168	0x3f88fe8c	1.0702682
169	0x3f47e904	0.7808993
170	0x3f80023d	1.0000683
171	0x3f7f5c43	0.99750155
172	0x3f8c8a98	1.0979795
173	0x3f546b4a	0.8297621
174	0x3f904361	1.1270562
175	0x3f441a79	0.76602894
176	0x3f830690	1.0236378
177	0x3f7bac06	0.9830936
178	0x3f69a73d	0.9127081
179	0x3f6d5a5a	0.9271599
180	0x3f7d8dab	0.99044293
181	0x3f8042b6	1.0020359
182	0x3f8aaa28	1.0833178
183	0x3f71b949	0.9442335
184	0x3f5d71e0	0.86501884
185	0x3f81b2eb	1.0132726
186	0x3f5d52ef	0.8645467
187	0x3f925a3e	1.143379
188	0x3f849bbd	1.0360028
189	0x3f892dcc	1.0717101
190	0x3f6e15f7	0.93002266
191	0x3f2fa00d	0.68603593
192	0x3f8321bd	1.0244671
193	0x3f8bdf73	1.0927566
194	0x3f7fdf13	0.9994976
195	0x3f85419d	1.0410649
196	0x3f62281e	0.88342464
197	0x3f7ec5f2	0.9952079
198	0x3f5ac667	0.8545899
199	0x3f9c105a	1.219249
200	0x3f72f02f	0.9489774
201	0x3f5364a1	0.8257542
202	0x3f7d7f1e	0.9902209
203	0x3f85e304	1.0459905
204	0x3f82884c	1.0197845
205	0x3f7e2532	0.99275506
206	0x3f81c18b	1.013719
207	0x3f489753	0.783559
208	0x3f80e40a	1.0069592
209	0x3f89f7f2	1.0778792
210	0x3f7b211d	0.980974
211	0x3f869148	1.0513086
212	0x3f814fa7	1.0102433
213	0x3f779720	0.96714973
214	0x3f50c54a	0.8155104
215	0x3f77bfee	0.96777236
216	0x3f8a2de1	1.0795251
217	0x3f62f0f3	0.8864891
218	0x3f7b448b	0.98151463
219	0x3f793521	0.97346693
220	0x3f64a5f6	0.89315736
221	0x3f770bd4	0.96502423
222	0x3f5a55a1	0.8528691
223	0x3f51de24	0.81979585
224	0x3f73316c	0.94997287
225	0x3f836a0d	1.0266739
226	0x3f77fd8a	0.96871245
227	0x3f59e340	0.8511238
228	0x3f807286	1.003495
229	0x3f740b14	0.95329404
230	0x3f856b89	1.0423442
231	0x3f86be61	1.0526849
232	0x3f8f6c80	1.1204987
233	0x3f8647d3	1.0490669
234	0x3f86ce8f	1.0531787
235	0x3f884cd8	1.0648451
236	0x3f82a92b	1.0207876
237	0x3f586a0f	0.8453683
238	0x3f988135	1.1914431
239	0x3f6d0858	0.92590857
240	0x3f7df3ef	0.9920034
241	0x3f93862c	1.1525321
242	0x3f84ef31	1.0385495
243	0x3f64a23f	0.8931007
244	0x3f6fb0d5	0.936292
245	0x3f5f5ac1	0.87247854
246	0x3f82530d	1.0181595
247	0x3f6d9869	0.92810684
248	0x3f639030	0.8889189
249	0x3f6b8852	0.92004883
250	0x3f8138fd	1.0095516
251	0x3f666b8d	0.9000786
252	0x3f6dda76	0.9291147
253	0x3f602c74	0.8756783
254	0x3fa961c0	1.3232956
255	0x3f799715	0.9749616

bias f4 [256]
0	0xbe575cf7	-0.21031557
1	0xbdbdcd4e	-0.092676744
2	0xbe006871	-0.12539841
3	0xbdc9f16b	-0.098605
4	0x3c2ddbe3	0.010611507
5	0xbcef3131	-0.029198261
6	0x3c9656e1	0.018351974
7	0xbe50aed9	-0.20379199
8	0xbd969186	-0.07351975
9	0xbe2a087f	-0.16604804
10	0x3ccd6934	0.025074579
11	0xbd11a5b2	-0.03555841
12	0xbdd11388	-0.102088034
13	0xbe62c601	-0.22145845
14	0xbdb561d7	-0.08856552
15	0xbcfb396d	-0.030667031
16	0xbe5aff33	-0.21386413
17	0xbddc6c34	-0.107628256
18	0xbe4252e6	-0.18976936
19	0xbdf71756	-0.12064998
20	0xbda2fc63	-0.07958295
21	0xbe186c99	-0.14885177
22	0xbe4b0c2a	-0.19828859
23	0xbe16fe67	-0.14745484
24	0xbda29f7b	-0.07940575
25	0xbdd9690b	-0.106157385
26	0x3d0bfe3a	0.034177996
27	0xbd7d4a1d	-0.061838258
28	0xbe47a2c3	-0.19495682
29	0xbdf2bf6f	-0.11852919
30	0xbe3513e8	-0.17683375
31	0xbe038644	-0.12844187
32	0xbe68e46b	-0.22743385
33	0xbd8f77cc	-0.07005271
34	0x3e3d8273	0.18506794
35	0xbd90058f	-0.0703231
36	0xbe63deb0	-0.22252917
37	0x3b5bec04	0.0033557424
38	0xbe183839	-0.14865197
39	0xbcce7bc8	-0.025205508
40	0xbd996379	-0.07489676
41	0xbde3d36e	-0.111243114
42	0xbdb1b2c6	-0.086766765
43	0xbdea710e	-0.11447345
44	0xbcb05070	-0.02152273
45	0xbe3e3548	-0.18575013
46	0xbda6344a	-0.08115442
47	0xbdcf8f77	-0.101347856
48	0xbd8b45d7	-0.0680043
49	0xbdfa2602	-0.12214281
50	0xbd96a604	-0.07355884
51	0xbd955aeb	-0.07292732
52	0xbe3bba9b	-0.18332903
53	0xbdc93e03	-0.09826281
54	0xbe279c0d	-0.16368122
55	0xbde337e2	-0.11094643
56	0xbe03b7df	-0.1286311
57	0x3c7c2f79	0.015392178
58	0xbe0a9faf	-0.13537477
59	0xbe02eeac	-0.12786359
60	0xbe3acac4	-0.18241411
61	0xbe18b2fb	-0.14912026
62	0xbe04f08e	-0.1298239
63	0xbd8e7711	-0.06956304
64	0xbe1bd7de	-0.15219066
65	0xbdb288db	-0.08717509
66	0xbe487a3a	-0.19577876
67	0xbe5e6d5a	-0.21721402
68	0xbde45ab2	-0.11150111
69	0xbe13c663	-0.14431147
70	0xbdccb9ee	-0.09996401
71	0xbde651cd	-0.11246071
72	0xbd4502f4	-0.04809852
73	0xbc16f204	-0.009212974
74	0xbd9e03e9	-0.077155896
75	0xbe37fdc4	-0.17967898
76	0xbe67a9e3	-0.226234
77	0xbc248b3d	-0.010042963
78	0xbcf22ecf	-0.029563336
79	0xbe4a4ce5	-0.19755895
80	0xbe28a875	-0.16470511
81	0x3cb1bef8	0.021697506
82	0xbb35af45	-0.0027722877
83	0xbe3ffdd7	-0.18749176
84	0xbe1b39df	-0.15158795
85	0xbd657d91	-0.056027953
86	0xbd0358b2	-0.03206701
87	0xbdcd7a23	-0.10033061
88	0xbc98f0e4	-0.018669553
89	0xbd16af27	-0.036788132
90	0x3b1ae76a	0.0023636469
91	0xbdea4f9f	-0.11440968
92	0xbd6d7474	-0.057972386
93	0xbcfa50a3	-0.030556029
94	0xbe2b427a	-0.16724578
95	0xbdbbe04e	-0.09173642
96	0xbd95bdca	-0.0731159
97	0xbe3ea278	-0.18616664
98	0xbd852167	-0.065005116
99	0xbda80da3	-0.08205726
100	0xbdd70345	-0.104986705
101	0xbe103c7c	-0.14085573
102	0xbe35a7b2	-0.17739752
103	0x3e201e6c	0.15636605
104	0xbd8042e7	-0.062627606
105	0xbdf1e9a0	-0.118121386
106	0xbe598525	-0.21242197
107	0xbe599ff8	-0.2125243
108	0xbe11f05b	-0.14251845
109	0xbe7df8bb	-0.24801914
110	0xbde1f201	-0.11032487
111	0xbda9d19b	-0.08291932
112	0xbdfc49f6	-0.123187944
113	0xbe390c6e	-0.18071148
114	0xbe15d750	-0.14632916
115	0xbe370b67	-0.17875443
116	0xbd8e7140	-0.069551945
117	0xbd95df16	-0.07317941
118	0xbdd0292e	-0.101641044
119	0xbd47c971	-0.048776094
120	0xbc473709	-0.0121591175
121	0xbe0c021b	-0.13672678
122	0xbe1320e9	-0.14368023
123	0x3d8052cc	0.06265792
124	0xbe781631	-0.24227215
125	0xbdb3963f	-0.087688915
126	0xbdee23c0	-0.116279125
127	0xbdc5d499	-0.096596904
128	0xbdd18086	-0.10229592
129	0xbe22d4ad	-0.15901442
130	0xbdb8fe63	-0.090328954
131	0x3b1d2ee4	0.0023984248
132	0xbe14cb9c	-0.14530796
133	0xbcba7ee1	-0.022765579
134	0xbe030917	-0.12796436
135	0xbe396e9e	-0.18108603
136	0x3ddaac0a	0.10677345
137	0xbdf43c34	-0.11925545
138	0xbe1d8bb0	-0.15385318
139	0xbe4153d6	-0.18879637
140	0xbe296f5d	-0.16546388
141	0xbdfb7d12	-0.12279715
142	0xbe069fe4	-0.13146931
143	0xbe2ef61c	-0.17086071
144	0xbe2db6e5	-0.169643
145	0xbd187929	-0.037224922
146	0xbdef8a57	-0.11696308
147	0xbd88dc66	-0.06682663
148	0xbc036f76	-0.00802218
149	0xbe662504	-0.22475058
150	0xbe3a9b8c	-0.18223399
151	0xbddc0d43	-0.10744717
152	0xbdfaa806	-0.12239079
153	0xbc23e260	-0.0100027025
154	0xbd99d862	-0.07511975
155	0xbe31287c	-0.173006
156	0xbdc38b51	-0.09548057
157	0xbe06ce00	-0.1316452
158	0xbdd3ac33	-0.10335579
159	0xbd827cf6	-0.06371491
160	0xbdfdef8d	-0.12399206
161	0xbdc1761d	-0.094463564
162	0xbe465818	-0.19369543
163	0xbdcc70da	-0.09982462
164	0xbe5440ec	-0.2072789
165	0xbe692316	-0.2276729
166	0xbe1c67be	-0.1527395
167	0x3cdbcf0a	0.026832122
168	0xbdcf8cf7	-0.10134309
169	0xbe915f10	-0.2839284
170	0xbd00eecb	-0.03147773
171	0xbdbc5584	-0.09195998
172	0xbe2cabf1	-0.16862465
173	0xbe51f4c1	-0.20503522
174	0xbcf98dae	-0.030463066
175	0xbdc1b15b	-0.09457656
176	0xbd942a76	-0.07234661
177	0xbd3b39ae	-0.045709305
178	0xbdd8552a	-0.10563119
179	0xbdf21d98	-0.11822051
180	0xbe304847	-0.17215072
181	0xbd9ff08a	-0.07809551
182	0xbdc5480a	-0.09632881
183	0xbe26a89a	-0.16275254
184	0xbde368a6	-0.111039445
185	0x3e389e41	0.18029119
186	0xbda09122	-0.07840182
187	0xbb6cbf61	-0.0036124813
188	0xbd9412ba	-0.07230134
189	0xbdabd556	-0.083903
190	0xbe3745e3	-0.17897753
191	0xbe894f0d	-0.26818123
192	0xbe35d1aa	-0.17755762
193	0x3cf8d0b2	0.030372951
194	0xbe421d78	-0.18956554
195	0xbd4c395b	-0.049859386
196	0xbdf9d2fc	-0.12198445
197	0xbdc0006b	-0.0937508
198	0xbea2a974	-0.31769907
199	0x3d90b395	0.070655026
200	0xbe13457b	-0.14381973
201	0xbe348612	-0.17629269
202	0xbde0ab0d	-0.10970125
203	0xbde24550	-0.110483766
204	0xbd50c46a	-0.050968565
205	0xbe2eeb59	-0.17081966
206	0xbda3ac71	-0.07991875
207	0xbe072ae1	-0.13199951
208	0xbe289113	-0.16461591
209	0xbd805dbc	-0.062678784
210	0xbe35c95a	-0.17752591
211	0xbdf22991	-0.118243344
212	0xbc008001	-0.0078430185
213	0xbe48bf6d	-0.19604273
214	0xbe5dceea	-0.21660963
215	0xbdee30b3	-0.116303824
216	0x3cb29e3f	0.021803973
217	0xbe2e4243	-0.17017464
218	0xbde8a123	-0.113588594
219	0xbd9df8ee	-0.07713495
220	0xbddc9d38	-0.107721746
221	0xbe3cf3a8	-0.18452322
222	0xbdaa6557	-0.0832011
223	0xbe531d4a	-0.20616642
224	0xbd9e0d3c	-0.07717368
225	0xbe732d6c	-0.23747796
226	0xbe1a7c42	-0.15086463
227	0xbdc274d1	-0.09494937
228	0xbe02f78e	-0.12789747
229	0xbe2e33e4	-0.17011982
230	0xbdf8a956	-0.12141673
231	0xbddd9b99	-0.108206935
232	0xbd818dac	-0.0632585
233	0xbda46e1f	-0.080288164
234	0xbcde1c78	-0.027113184
235	0xbd3970f1	-0.045273725
236	0xbd8183e4	-0.06323984
237	0xbe8c4dbe	-0.27403063
238	0xbe0b593c	-0.13608259
239	0xbe3c1709	-0.18368162
240	0xbe00e46f	-0.1258714
241	0xbe1a2087	-0.1505147
242	0xbd23f3d1	-0.040027443
243	0xbe319428	-0.17341673
244	0xbda5b738	-0.08091587
245	0xbded3271	-0.115818866
246	0xbe706419	-0.23475684
247	0xbe1c1419	-0.15242042
248	0xbdcc8e62	-0.09988095
249	0x3bab9353	0.0052360683
250	0xbe10cdc4	-0.14140993
251	0xbe6f8d7b	-0.23393814
252	0xbd7acd9b	-0.061231237
253	0xbd9751e0	-0.07388663
254	0xbd193411	-0.03740317
255	0xbe8925c3	-0.26786622

running_mean f4 [256]
0	0x405e4911	3.4732096
1	0x3e533ee4	0.2062946
2	0xc090b99c	-4.5226574
3	0xbffe32f1	-1.9859296
4	0xc0188575	-2.3831456
5	0x3f9969eb	1.1985449
6	0xbff9e86a	-1.9524052
7	0xc0aec8aa	-5.461995
8	0xbf17a65f	-0.5923824
9	0x3f983281	1.1890413
10	0xbf6e6ffd	-0.9313963
11	0x40c2ca59	6.0872006
12	0x3e1c21b4	0.15247232
13	0xc0119eba	-2.275313
14	0x3f284772	0.65734017
15	0xbe4cb502	-0.19990924
16	0xc020bd9d	-2.511573
17	0x3f273b7a	0.6532513
18	0xc05ce558	-3.451498
19	0xbfd92052	-1.6962988
20	0xc043b06c	-3.057643
21	0x3f7e57a5	0.99352485
22	0xbee0b2e3	-0.4388648
23	0x3cab73f4	0.020929314
24	0x40ba181c	5.815443
25	0xbb2d3908	-0.0026431698
26	0xc02af25d	-2.6710427
27	0xc0605dba	-3.5057206
28	0x40864055	4.195353
29	0xbff901e5	-1.9453703
30	0x4031fa33	2.780896
31	0xbfbb63d1	-1.4639837
32	0xbf24c085	-0.6435626
33	0xbf3a76fd	-0.7283781
34	0xbffcd115	-1.9751307
35	0x40a1b5ab	5.0534263
36	0xc0255370	-2.5832176
37	0xbf9c8d82	-1.2230685
38	0x3f1122a4	0.5669348
39	0x4073f03e	3.8115382
40	0xbefed4ce	-0.49771732
41	0xbff9d889	-1.9519206
42	0x3fcab075	1.58351
43	0xbff7ace0	-1.9349632
44	0xbfa5d592	-1.2955801
45	0xc08645bb	-4.196012
46	0xc092d1d9	-4.588116
47	0x3f7610ad	0.96119195
48	0x40a16e82	5.0447397
49	0x407218f5	3.7827733
50	0x3bddb4f4	0.006765956
51	0xc00788d6	-2.1177268
52	0xbee9314f	-0.45545432
53	0xbf959732	-1.1686766
54	0x40093070	2.1435814
55	0x40141674	2.3138704
56	0x3f62d2a1	0.88602644
57	0x3e98dc66	0.2985565
58	0x4016f070	2.3584251
59	0x3fd7b4ce	1.6852052
60	0xc02330dc	-2.5498571
61	0xbffd240b	-1.9776624
62	0xc04fc3a1	-3.2463152
63	0x3ffd3746	1.9782493
64	0xc050e351	-3.2638743
65	0x3d6987ac	0.057014152
66	0xbf9c9117	-1.2231778
67	0x3f8c1bbb	1.0945963
68	0x408257cc	4.0732174
69	0x3fd3aca8	1.6537066
70	0x3fb48e29	1.4105884
71	0x40074cf7	2.1140726
72	0xbf98dce7	-1.1942414
73	0xbe21b441	-0.15791418
74	0xc03c936c	-2.946498
75	0xc06ca7cf	-3.6977422
76	0xc0806024	-4.011736
77	0xbe89b66a	-0.26896983
78	0xbfab0683	-1.3361362
79	0xbeea9f87	-0.45824835
80	0xc00b9d1c	-2.1814642
81	0xc04f64ec	-3.2405348
82	0x4013cd28	2.3093967
83	0x3d6def0e	0.05808931
84	0xbfb90d8c	-1.4457259
85	0xc0be7cf8	-5.952755
86	0xc07b2abc	-3.9244833
87	0xc009d1dc	-2.1534338
88	0x40732943	3.7993934
89	0xc05200b6	-3.2812934
90	0x3f86c2c9	1.0528194
91	0xc08b3a75	-4.350886
92	0xbffe3ade	-1.9861715
93	0x3fabca99	1.3421203
94	0xbfc669c2	-1.5501025
95	0x4016d3b4	2.3566713
96	0xbfb1f309	-1.3902293
97	0xc057c119	-3.3711607
98	0x3ff3e9e6	1.9055755
99	0x4060e3d5	3.5139058
100	0x4076aa2d	3.8541367
101	0x3f700b55	0.9376729
102	0xbfa3a894	-1.2785821
103	0xc0250e25	-2.5789883
104	0xbf7d3838	-0.9891391
105	0xbe583390	-0.2111342
106	0xc0a9d194	-5.3068333
107	0xbf4dbaad	-0.8036297
108	0x3f532780	0.8248215
109	0xbf91069f	-1.1330146
110	0x3f336302	0.7007295
111	0xbf5e0bdd	-0.8673685
112	0xbef6f965	-0.48237148
113	0xbdb31733	-0.08744659
114	0xbf88311b	-1.0639986
115	0xbf4ee262	-0.8081418
116	0xc0148dff	-2.3211668
117	0xc01157a4	-2.2709742
118	0xc03c1345	-2.938676
119	0xc00e30c4	-2.2217264
120	0xbe0373c7	-0.12837134
121	0xbfa0d1be	-1.2564008
122	0xbf6746b6	-0.9034227
123	0xc066058a	-3.594088
124	0x4063da7e	3.5602107
125	0x3d27766b	0.040884417
126	0x3e09c2cf	0.1345322
127	0xbf582b71	-0.84441286
128	0xc00ff272	-2.2491727
129	0xbf1bb9b6	-0.6083025
130	0x40e83830	7.256859
131	0xc019562a	-2.395884
132	0x3eef9981	0.46796802
133	0x3edb9584	0.4288751
134	0xc026bc0a	-2.605227
135	0xbfe7342a	-1.8062794
136	0xc009a9c2	-2.1509862
137	0x400f2435	2.236585
138	0xbf7a17af	-0.9769239
139	0xbe6f9cf3	-0.23399715
140	0xbf37d68f	-0.71811765
141	0xc037cedc	-2.8720007
142	0x3ec88f74	0.39171946
143	0xc06518ff	-3.5796506
144	0x3fae4e2c	1.3617606
145	0xc00bae76	-2.1825233
146	0x3f6d94e8	0.9280534
147	0x3f635e88	0.8881612
148	0x3f95768b	1.1676801
149	0xc062436b	-3.5353649
150	0xbf91487d	-1.1350247
151	0xc02153db	-2.5207431
152	0x3fd04ca4	1.6273389
153	0x3fa8dbd5	1.3192087
154	0x3f2a7db9	0.6659809
155	0xc084d2d1	-4.1507344
156	0xc0501a68	-3.2516117
157	0xbf8750e4	-1.0571561
158	0x401569e1	2.3345873
159	0xbfa54e7a	-1.2914574
160	0x3f83461a	1.0255768
161	0xc087a99b	-4.239454
162	0xbfc6b6d9	-1.5524551
163	0x402db7ed	2.714351
164	0x3fa5fc77	1.2967671
165	0xbf3f68b7	-0.7476916
166	0xc0157810	-2.335453
167	0x3eaf9a86	0.3429758
168	0xc033c9c6	-2.8091903
169	0xbf889221	-1.0669595
170	0xbf17e877	-0.5933909
171	0x4009cf6e	2.1532855
172	0xc03b2cea	-2.9246163
173	0x401d2d0b	2.4558742
174	0xbfeccee3	-1.8500637
175	0x408c3b60	4.382248
176	0x3fac003f	1.3437575
177	0x4005eff0	2.0927696
178	0xc055d1ae	-3.3409228
179	0xbfd75892	-1.6823905
180	0xbd9f5255	-0.077793755
181	0xbfb79695	-1.4342829
182	0xc03f48c8	-2.9888172
183	0xbf736296	-0.95072305
184	0xbe615f6b	-0.22009055
185	0x3f433806	0.7625736
186	0xc00b63ed	-2.177974
187	0x3fa4aa36	1.2864444
188	0x3f88fad9	1.0701553
189	0x40354720	2.8324661
190	0xc0222e8d	-2.5340912
191	0x40106910	2.2564125
192	0xbfc5ce1d	-1.5453526
193	0xbf3736ad	-0.71567804
194	0xc039ae41	-2.9012606
195	0xc0a9d5e6	-5.3073606
196	0x4085fb02	4.1868906
197	0x3ea78e0b	0.32725558
198	0x3dc9238f	0.098212354
199	0x3f6da41f	0.92828554
200	0xc0437e3e	-3.0545802
201	0x40285160	2.6299667
202	0xbf940b54	-1.1565957
203	0x404c129d	3.188636
204	0xbf197981	-0.59951025
205	0xbf9e0001	-1.2343751
206	0xbf4fdc42	-0.8119546
207	0x4103bf96	8.234274
208	0x401c1bdb	2.4392002
209	0xbfb35ca2	-1.4012644
210	0x3e92c6f8	0.28667426
211	0xbf58e307	-0.84721416
212	0x3f652241	0.8950539
213	0x3fc7e1c4	1.5615773
214	0x3e923586	0.2855646
215	0x3e97843e	0.2959308
216	0x3febbda9	1.8417255
217	0x3f7b26c0	0.98106
218	0xbecdcd9c	-0.4019593
219	0x3e8b7b46	0.27242488
220	0x3f04a6c7	0.5181698
221	0x3f749c7f	0.95551294
222	0x40ab1a2f	5.3469462
223	0xc0f277b5	-7.5771127
224	0x400cf29a	2.2023072
225	0x3eaf7d3a	0.34275228
226	0xc01c891b	-2.4458683
227	0x3f97e365	1.186627
228	0x3f877071	1.0581189
229	0xc0878e6a	-4.2361345
230	0xc0146b85	-2.3190625
231	0xbe101b42	-0.14072898
232	0x401adcdd	2.4197304
233	0xc01ca4ce	-2.4475589
234	0xbf9e02c0	-1.2344589
235	0xbe0060bc	-0.12536901
236	0xbf85938c	-1.0435653
237	0xbedfa6c6	-0.43681926
238	0xc01b5550	-2.427082
239	0x3fc4e224	1.5381513
240	0x3f1ef2a5	0.62088996
241	0xc09da8c8	-4.926853
242	0xbe349f20	-0.17638826
243	0x3d35b5a6	0.044362687
244	0xbf8a23c6	-1.0792167
245	0x3f40b823	0.7528097
246	0xc0634d97	-3.5516107
247	0xbfb2713b	-1.3940805
248	0x4050e497	3.263952
249	0xbf427eba	-0.7597462
250	0x3ed5f97e	0.4179191
251	0xbfcc73db	-1.5972856
252	0x40a0f4b8	5.029873
253	0x3ed044d2	0.40677506
254	0xbf6f5a38	-0.9349704
255	0xc09609eb	-4.6887107

running_var f4 [256]
0	0x40ac757c	5.3893414
1	0x3fede73b	1.8586191
2	0x4086d04b	4.2129264
3	0x4081b262	4.0530252
4	0x40729ccb	3.79082
5	0x40b5a71f	5.6766505
6	0x4068326d	3.6280777
7	0x408181e7	4.047107
8	0x3fcf39c5	1.6189505
9	0x406fbaad	3.7457688
10	0x4063508a	3.5517907
11	0x4096abba	4.7084627
12	0x400b78f4	2.1792574
13	0x404f6432	3.2404904
14	0x403b5887	2.9272783
15	0x3ff250d7	1.893092
16	0x3fb74f2c	1.4321036
17	0x3fd3c30b	1.6543897
18	0x409a756e	4.8268347
19	0x40640f30	3.563427
20	0x403e7699	2.9759886
21	0x405b3f02	3.4257207
22	0x40b50502	5.6568613
23	0x402a5c5a	2.6618867
24	0x40c5e20f	6.183845
25	0x4010c883	2.2622383
26	0x401cfd1a	2.452948
27	0x406a1b39	3.6579115
28	0x40b86c20	5.763199
29	0x40fb1e2b	7.8474326
30	0x40911ce7	4.534778
31	0x4048fab2	3.1403012
32	0x4026079a	2.594214
33	0x408f8368	4.484791
34	0x3fea614f	1.8310946
35	0x40d8c10a	6.7735643
36	0x4096aa04	4.708254
37	0x401f2f5b	2.4872653
38	0x3fd715da	1.6803544
39	0x406811cd	3.6260865
40	0x3fe6f8c1	1.8044664
41	0x3fdba8c2	1.7160876
42	0x403f9cdd	2.9939492
43	0x3f9eaa85	1.2395788
44	0x40862710	4.1922684
45	0x40252312	2.5802655
46	0x40f153ef	7.541496
47	0x405dd144	3.4658976
48	0x408e945c	4.4556103
49	0x40225c07	2.536867
50	0x3fd4b7c1	1.6618577
51	0x3fc999b2	1.5750029
52	0x403d2e00	2.9559326
53	0x3fca3554	1.5797524
54	0x4008a650	2.135151
55	0x4053f15a	3.311606
56	0x3ff952b0	1.9478359
57	0x405f3683	3.4877021
58	0x4008351d	2.1282418
59	0x3fd6a743	1.6769794
60	0x4094d7f2	4.6513605
61	0x40304bd8	2.7546291
62	0x40a9ae63	5.3025374
63	0x4026afa1	2.6044695
64	0x4044bf7f	3.074188
65	0x40347413	2.8195846
66	0x400384d8	2.0549831
67	0x3fb77000	1.4331055
68	0x40c4d721	6.151261
69	0x4040116b	3.001063
70	0x40789f52	3.8847241
71	0x40dd41fb	6.9143043
72	0x403a78ad	2.9136155
73	0x40058074	2.0859652
74	0x4043f687	3.0619218
75	0x4043057f	3.0472105
76	0x4051959a	3.274756
77	0x40810bf1	4.0327077
78	0x40174394	2.3634996
79	0x3fcd8863	1.6057247
80	0x40824146	4.070468
81	0x40561c6f	3.3454854
82	0x3fe4dd59	1.788005
83	0x4092e3fa	4.590329
84	0x4057de9a	3.3729615
85	0x4086f98b	4.217962
86	0x405f1c9c	3.4861212
87	0x4049eaa6	3.1549468
88	0x4071b315	3.7765553
89	0x4009f2f8	2.1554546
90	0x40249c62	2.5720448
91	0x40cd88a3	6.4229293
92	0x400978ad	2.1479905
93	0x403e2cd1	2.9714854
94	0x408e40da	4.4454165
95	0x40516203	3.2716072
96	0x40664654	3.5980425
97	0x406b1412	3.6731
98	0x404c2271	3.1896021
99	0x402c149a	2.6887574
100	0x40eae540	7.3404846
101	0x4098c368	4.7738533
102	0x3f7c6d2c	0.98604083
103	0x408f7a18	4.483654
104	0x40697b52	3.6481519
105	0x3fbb01f2	1.4609969
106	0x409eee4b	4.9665885
107	0x4064bebd	3.5741417
108	0x3fb3c092	1.4043143
109	0x40ba8bca	5.829564
110	0x40b5b032	5.677758
111	0x40c36df7	6.1071734
112	0x3fd415f9	1.6569206
113	0x40290c4e	2.641376
114	0x3fb24e67	1.3930176
115	0x3fd2f117	1.6479825
116	0x40391944	2.892167
117	0x407b18b1	3.923382
118	0x40a441d6	5.1330366
119	0x4022fec8	2.5468006
120	0x40a66aac	5.2005215
121	0x407c38eb	3.940974
122	0x4098a414	4.770029
123	0x4076b355	3.8546956
124	0x401d5205	2.458131
125	0x408e0f3f	4.439361
126	0x40b51a6a	5.6594744
127	0x405118a3	3.2671287
128	0x4027dc94	2.622838
129	0x4042cac2	3.0436254
130	0x40dbd7fd	6.8701158
131	0x404fcc75	3.246854
132	0x3ffd9d1d	1.9813572
133	0x401461b6	2.3184638
134	0x40af46db	5.4773993
135	0x4035ae66	2.8387694
136	0x403478f9	2.8198836
137	0x40a93236	5.2873793
138	0x4048df22	3.138619
139	0x402a4e6f	2.6610372
140	0x408c5944	4.3858967
141	0x4064ea9b	3.5768192
142	0x3fca0fce	1.5786073
143	0x40758666	3.836328
144	0x4007ff1c	2.1249456
145	0x4087dfc0	4.246063
146	0x406afbaf	3.6716115
147	0x3fb7b8a4	1.4353223
148	0x3fee58f7	1.86209
149	0x401d7391	2.4601786
150	0x3fcb469d	1.5880924
151	0x40317c15	2.7731984
152	0x4071d5f6	3.7786841
153	0x3fd71446	1.6803062
154	0x405a6e66	3.4129882
155	0x401215e6	2.2825866
156	0x4077aa06	3.8697524
157	0x402bc639	2.6839736
158	0x402449c1	2.5670016
159	0x3ffaaffc	1.9584956
160	0x400b2d5d	2.1746438
161	0x40499af3	3.1500823
162	0x3fcd9d41	1.6063615
163	0x3fc71870	1.5554333
164	0x3fe12f4e	1.7592561
165	0x3ff6ae62	1.9271967
166	0x401f52b3	2.4894226
167	0x4020f4a9	2.5149329
168	0x409f777f	4.983337
169	0x409d2563	4.910814
170	0x40594157	3.394613
171	0x404a2147	3.158281
172	0x40409a2c	3.00941
173	0x40547a69	3.3199713
174	0x3fe7ad8f	1.8099841
175	0x415c2e39	13.761285
176	0x4014790d	2.3198884
177	0x401f4839	2.4887831
178	0x408ff7fc	4.4990215
179	0x40180d2f	2.3758047
180	0x40c9381d	6.2881
181	0x402aacfd	2.6668084
182	0x40306274	2.756009
183	0x40487f60	3.1327744
184	0x40508818	3.2583065
185	0x401e2b0b	2.4713771
186	0x409159ba	4.542203
187	0x3fa6df80	1.3036957
188	0x403754ea	2.8645577
189	0x4036b564	2.8548212
190	0x4061e846	3.5298018
191	0x404d937a	3.2121263
192	0x40337096	2.8037467
193	0x4012a8ff	2.2915647
194	0x4034fd3f	2.827957
195	0x40a099f4	5.018793
196	0x41246dfb	10.276851
197	0x4032f71e	2.7963328
198	0x4081eb77	4.0599933
199	0x3f600355	0.87505084
200	0x402a0e25	2.6571133
201	0x4090d8c2	4.5264597
202	0x3fde3c45	1.7362143
203	0x401f3758	2.487753
204	0x40288eac	2.633708
205	0x3faa6b0d	1.3313919
206	0x3feeb908	1.8650217
207	0x4116ddcd	9.429151
208	0x3fded92f	1.7410029
209	0x40103c15	2.253667
210	0x4014d9b3	2.3257873
211	0x40009c8b	2.0095546
212	0x40fb3a6d	7.850882
213	0x3fb3fad3	1.406092
214	0x401fc9a7	2.496683
215	0x4001112d	2.0166733
216	0x3fcd7ac3	1.6053089
217	0x3fdcb287	1.7241982
218	0x408be3b5	4.3715463
219	0x3fedb442	1.8570635
220	0x3f5934b0	0.8484602
221	0x4010bbd5	2.2614644
222	0x40f0ecea	7.52892
223	0x410d7a58	8.842369
224	0x4030c741	2.7621615
225	0x40090483	2.1409004
226	0x40c9456e	6.2897253
227	0x40312996	2.7681632
228	0x40399282	2.8995671
229	0x403c9893	2.9468124
230	0x408b9380	4.3617554
231	0x3fae35a0	1.3610115
232	0x402b3863	2.6753166
233	0x40677324	3.6164026
234	0x4020e5fa	2.5140367
235	0x4084d389	4.150822
236	0x403924d5	2.892873
237	0x3feb3592	1.8375723
238	0x3fdb0e97	1.7113827
239	0x40d04043	6.5078444
240	0x401c7cc8	2.445116
241	0x4033d10c	2.8096342
242	0x3fd308ba	1.6487038
243	0x403c9aa9	2.9469397
244	0x40465964	3.099206
245	0x403f14e5	2.9856503
246	0x40664c57	3.5984094
247	0x406d346c	3.7063246
248	0x400c5015	2.1923878
249	0x4014a72e	2.3227038
250	0x40afdb74	5.4955387
251	0x40877577	4.233089
252	0x412af790	10.68544
253	0x408471c5	4.138888
254	0x40401642	3.0013585
255	0x3ff01631	1.8756772

weight f4 [256]
0	0x3f973746	1.1813743
1	0x3fa02fec	1.2514625
2	0x3f8f2c0d	1.1185318
3	0x3f9dc5c5	1.232598
4	0x3f9393a2	1.1529429
5	0x3faf23d1	1.3682805
6	0x3f8aa457	1.0831403
7	0x3f9975d6	1.1989086
8	0x3fa108ce	1.2580812
9	0x3fa54e20	1.2914467
10	0x3f8973ee	1.0738504
11	0x3f9b8808	1.2150888
12	0x3f9afef4	1.2109056
13	0x3fa38caf	1.2777308
14	0x3fa40f53	1.2817177
15	0x3f9876c3	1.1911243
16	0x3f9c5ea9	1.2216388
17	0x3fa13f8a	1.2597516
18	0x3f9244d4	1.1427255
19	0x3f9fdc79	1.2489158
20	0x3fa0d9f4	1.2566514
21	0x3facb76c	1.3493476
22	0x3f87bf60	1.0605278
23	0x3f90adc4	1.1303029
24	0x3f97e5ce	1.1867006
25	0x3f91074a	1.133035
26	0x3f92e6ce	1.1476686
27	0x3f8d65c3	1.104668
28	0x3f835679	1.0260764
29	0x3fa749d1	1.3069402
30	0x3f87c966	1.0608337
31	0x3f9713a4	1.1802869
32	0x3fa6a922	1.3020365
33	0x3f9f4b3f	1.2444838
34	0x3f9c226b	1.2198004
35	0x3fa1be24	1.2636151
36	0x3f8b404d	1.0878998
37	0x3f9456c7	1.1588982
38	0x3f904b65	1.1273009
39	0x3f92d2a9	1.1470538
40	0x3f8bb34f	1.0914096
41	0x3fb07647	1.3786095
42	0x3f91a3d4	1.1378121
43	0x3f97d408	1.1861582
44	0x3f9c2b32	1.2200682
45	0x3f9d67d5	1.2297312
46	0x3fa3c259	1.2793685
47	0x3f9e062d	1.2345635
48	0x3f93093c	1.1487193
49	0x3f9dced6	1.2328746
50	0x3fb5d1f7	1.4204701
51	0x3f9f6d7a	1.2455285
52	0x3f91fa3f	1.1404494
53	0x3f9d6d19	1.2298919
54	0x3fa62dc5	1.2982718
55	0x3fa7836c	1.3086982
56	0x3f90a9f6	1.1301868
57	0x3fa243a9	1.2676898
58	0x3f941a38	1.1570501
59	0x3fa11df9	1.2587272
60	0x3fa38f67	1.2778138
61	0x3f9a42f3	1.2051681
62	0x3f98e329	1.1944324
63	0x3f9a2d51	1.204508
64	0x3f919a74	1.137526
65	0x3fa2b3bc	1.27111
66	0x3f97d59a	1.1862061
67	0x3f9e6921	1.2375833
68	0x3f905506	1.1275947
69	0x3faada2b	1.334783
70	0x3fa2c49b	1.2716249
71	0x3fa1c9a9	1.2639667
72	0x3f8bc8df	1.0920676
73	0x3f958e33	1.1684021
74	0x3f9a8ae9	1.2073642
75	0x3f9a5409	1.2056895
76	0x3fa84b78	1.3148031
77	0x3f8b9cda	1.0907242
78	0x3f9b6b5c	1.2142138
79	0x3f89cf36	1.0766361
80	0x3f9aa978	1.2082968
81	0x3f9974e4	1.1988797
82	0x3f9630b0	1.1733608
83	0x3f964f91	1.1743032
84	0x3fa502ed	1.2891518
85	0x3f95efa6	1.171376
86	0x3f9c22e7	1.2198151
87	0x3fa06788	1.2531595
88	0x3f96f2f3	1.1792892
89	0x3f920a31	1.140936
90	0x3fa6aa3d	1.3020703
91	0x3fa09b79	1.2547446
92	0x3f8cf41e	1.1011999
93	0x3fab88ff	1.3401183
94	0x3f8cfac3	1.1014026
95	0x3f97ba61	1.1853753
96	0x3f95649d	1.167133
97	0x3f952330	1.1651363
98	0x3f973e8c	1.1815963
99	0x3f8e3197	1.1108884
100	0x3f962a59	1.1731673
101	0x3f9f9b07	1.2469186
102	0x3f8e1894	1.1101251
103	0x3f916153	1.1357826
104	0x3fa2de28	1.2724047
105	0x3f98dff7	1.1943349
106	0x3fa848e5	1.3147246
107	0x3f89b750	1.0759068
108	0x3faa18bf	1.3288802
109	0x3f9cb672	1.2243178
110	0x3f9573d5	1.1675974
111	0x3f8ff673	1.1247085
112	0x3f8e967a	1.1139672
113	0x3fa93bf9	1.3221427
114	0x3f9f01d7	1.2422436
115	0x3f9e32d1	1.2359258
116	0x3f9b4a53	1.2132057
117	0x3f8e8e0a	1.1137097
118	0x3f9be7c6	1.2180107
119	0x3f8aaa85	1.0833288
120	0x3f9a3aea	1.2049229
121	0x3fad2632	1.3527281
122	0x3fa524a0	1.2901802
123	0x3f986e09	1.190858
124	0x3f951ad7	1.1648816
125	0x3f8fce16	1.1234767
126	0x3fa301c9	1.273492
127	0x3f9cae24	1.2240644
128	0x3f8c413d	1.0957409
129	0x3f92f6e9	1.1481601
130	0x3f95e145	1.1709372
131	0x3f9f5d68	1.245038
132	0x3f9bd6b5	1.2174898
133	0x3fabc165	1.3418394
134	0x3f9a960e	1.2077043
135	0x3f92c517	1.1466397
136	0x3f90f14d	1.1323639
137	0x3fb5d4ad	1.4205528
138	0x3fa2eee1	1.272915
139	0x3f9d61ac	1.2295432
140	0x3fa0c1a7	1.2559098
141	0x3f924bdb	1.1429399
142	0x3f9164ed	1.1358925
143	0x3fa7ba1b	1.310367
144	0x3f9b69d0	1.2141666
145	0x3f93aa17	1.1536282
146	0x3f96904b	1.1762785
147	0x3f721288	0.94559526
148	0x3fa0d894	1.2566094
149	0x3fab8d70	1.3402538
150	0x3fac58e1	1.3464624
151	0x3f92fe4a	1.1483853
152	0x3f8baf70	1.0912914
153	0x3f99baab	1.2010092
154	0x3f9603b1	1.1719877
155	0x3f9c873f	1.2228774
156	0x3f983fbd	1.1894451
157	0x3f9d9562	1.2311213
158	0x3f8c94d1	1.0982915
159	0x3f8ebd02	1.1151431
160	0x3f8ff0e7	1.1245393
161	0x3f9730b1	1.1811734
162	0x3f93ca5f	1.1546134
163	0x3f944590	1.1583729
164	0x3f970eb3	1.1801361
165	0x3fa22e4a	1.2670376
166	0x3f99db41	1.2020036
167	0x3fa3857b	1.277511
168	0x3f98bdc5	1.1932913
169	0x3f875a3a	1.057441
170	0x3f976795	1.1828486
171	0x3f91d690	1.1393604
172	0x3fa392aa	1.2779133
173	0x3fa8003e	1.3125074
174	0x3f9f1877	1.2429341
175	0x3f9a157e	1.2037809
176	0x3f9d2166	1.2275817
177	0x3f8e738b	1.1129011
178	0x3fa01c2a	1.2508595
179	0x3f965921	1.174595
180	0x3f995c4b	1.198129
181	0x3f929220	1.1450844
182	0x3f981921	1.1882669
183	0x3fab4061	1.3379022
184	0x3fa18cc1	1.262108
185	0x3fb31887	1.399186
186	0x3f964b07	1.1741647
187	0x3fa28a1b	1.2698396
188	0x3f9e05c6	1.2345512
189	0x3fb3d51e	1.4049413
190	0x3fa04a25	1.2522627
191	0x3f949718	1.160861
192	0x3fa80901	1.3127748
193	0x3f889fe8	1.06738
194	0x3f9fc54c	1.2482085
195	0x3fa8838a	1.3165143
196	0x3fa9c15d	1.3262135
197	0x3f8a6f6a	1.0815251
198	0x3f9a5be7	1.2059296
199	0x3f9a9e09	1.2079479
200	0x3f934297	1.1504697
201	0x3fa45884	1.2839513
202	0x3f95673b	1.1672128
203	0x3f94a7a7	1.1613663
204	0x3f855af0	1.0418377
205	0x3f9855b4	1.1901155
206	0x3f94e730	1.1633053
207	0x3fa6bd60	1.3026543
208	0x3faae776	1.3351886
209	0x3f9821df	1.1885337
210	0x3f93fa73	1.1560806
211	0x3f8b2c72	1.0872939
212	0x3f9e8a58	1.2385969
213	0x3fa01754	1.2507119
214	0x3f9f151c	1.2428317
215	0x3fa12933	1.2590698
216	0x3fb25724	1.3932843
217	0x3f8793aa	1.0591938
218	0x3f9c3849	1.2204677
219	0x3f9b7d86	1.2147682
220	0x3f9be851	1.2180272
221	0x3f951a18	1.1648588
222	0x3fa07c3f	1.2537917
223	0x3f8a4637	1.0802678
224	0x3f8f9b6b	1.1219305
225	0x3f9ef548	1.2418604
226	0x3f976279	1.1826926
227	0x3f7aae13	0.97921866
228	0x3f941c0b	1.1571058
229	0x3f88e00e	1.0693376
230	0x3f92dcad	1.1473595
231	0x3f8e7580	1.1129608
232	0x3fa15c20	1.2606239
233	0x3f94d5a7	1.1627702
234	0x3f8d5f27	1.1044663
235	0x3f97ab86	1.184922
236	0x3fa03281	1.2515413
237	0x3f9c70ae	1.2221887
238	0x3fa03014	1.2514672
239	0x3f9ddc48	1.233285
240	0x3fa2d9bb	1.2722696
241	0x3fa872c1	1.316002
242	0x3f95aa6c	1.1692634
243	0x3fa71338	1.305274
244	0x3f938d45	1.1527487
245	0x3f9b618f	1.2139148
246	0x3f9bddaa	1.2177022
247	0x3fa2f150	1.2729893
248	0x3f9e6383	1.2374119
249	0x3f96d91b	1.1785005
250	0x3fac4cd1	1.3460943
251	0x3f8dfaa8	1.1092119
252	0x3f9aa79c	1.20824
253	0x3f91f1a9	1.1401874
254	0x3f9597fb	1.1687006
255	0x3f93053d	1.1485974

bias f4 [256]
0	0xbd3d9a33	-0.046289634
1	0x3aa51941	0.0012596027
2	0x3a45bab2	0.00075427734
3	0x3d9a45cc	0.07532844
4	0x3df2a0ab	0.11847051
5	0x3e4af4be	0.19819924
6	0xbdc7c8c3	-0.09755089
7	0x3e1609ea	0.1465222
8	0x3e42b2c6	0.19013509
9	0x3e83c5ea	0.25736934
10	0xbba89c32	-0.005145573
11	0x3dd2403e	0.102661595
12	0xbc27fceb	-0.010253171
13	0x3e17be70	0.1481874
14	0x3d136536	0.035985194
15	0x3e22e102	0.15906146
16	0x3e428834	0.1899727
17	0x3e1cf4de	0.15327784
18	0xbc8bb87e	-0.017055746
19	0x3ca14548	0.019686356
20	0x3e214c85	0.15751846
21	0x3d0ac143	0.033875715
22	0x3d2e4fb3	0.042556476
23	0x3dfa91d1	0.122348435
24	0x3ca937ba	0.020656455
25	0xbdfda7de	-0.12385534
26	0x3ceffd0f	0.029295472
27	0x3d5c5c1c	0.05379878
28	0xbcd3f656	-0.025874298
29	0x3e1f8743	0.15578942
30	0x3cc43a95	0.023953715
31	0x3e1d8a89	0.15384878
32	0x3e6c0d1a	0.23051873
33	0x3e4b9a27	0.19883023
34	0x3d37a246	0.04483249
35	0x3dd0d1a9	0.101962395
36	0x3c1351b2	0.008991646
37	0x3d22618b	0.039643805
38	0x3cb6a5ed	0.022295916
39	0x3ca28ebb	0.01984345
40	0x3b5714c7	0.003281878
41	0x3e4512b6	0.19245419
42	0xbc64404a	-0.013931343
43	0x3cfa8050	0.030578762
44	0x3e2b8c5d	0.16752763
45	0x3e3ed3ac	0.18635434
46	0x3e685598	0.22688901
47	0x3e431fff	0.19055174
48	0x3d3a7d23	0.045529496
49	0x3e321626	0.17391261
50	0x3e415ba7	0.18882619
51	0x3dfcba71	0.123402484
52	0xbd4fd3e1	-0.050739173
53	0x3e0858d8	0.13315141
54	0x3e376471	0.17909409
55	0x3da872fb	0.08225056
56	0x3c24d6e4	0.010061
57	0x3d165695	0.036703665
58	0x3b8cf9af	0.0043022255
59	0xbbb8290d	-0.005620128
60	0x3de1eeef	0.11031901
61	0x3d08d57f	0.03340673
62	0xbc7a0698	-0.015260361
63	0x3e25942c	0.16169804
64	0x3da9eedc	0.08297512
65	0x3e45cbed	0.19316073
66	0x3d15bc10	0.036556304
67	0x3e0a457f	0.13503073
68	0xbd8f1e4b	-0.069882
69	0x3e801896	0.25018758
70	0x3d90ad44	0.07064298
71	0x3dc5fe4c	0.09667644
72	0x3daab08f	0.08334457
73	0xbd1dd38c	-0.038531825
74	0x3d9e1feb	0.077209316
75	0x3e4f3e5f	0.20238636
76	0x3e3064d0	0.17225957
77	0xbbfeeb41	-0.0077795093
78	0x3da12b57	0.078695945
79	0x3bc0171f	0.0058621312
80	0x3e2398e9	0.159763
81	0x3d85c2c3	0.065312885
82	0xbcc96c32	-0.024587724
83	0x3d625b4c	0.05526285
84	0xbcc2649e	-0.023729619
85	0x3e0dd1b3	0.13849525
86	0x3d2579e4	0.040399447
87	0x3dd3caba	0.103414014
88	0x3de80bdb	0.11330386
89	0x3d5b6b5c	0.053569183
90	0x3e24d79a	0.1609787
91	0x3df5e35c	0.12006256
92	0x3e1fd195	0.15607293
93	0x3e66656a	0.22499624
94	0x3db832b1	0.089940436
95	0x3dc46d7e	0.095911965
96	0xbd74a435	-0.059726913
97	0xbb77ae2f	-0.003779303
98	0x3c477dd7	0.012175999
99	0x3da52d48	0.08065277
100	0xbd4b91c3	-0.049699556
101	0x3d086713	0.033301424
102	0x3b39517f	0.0028277335
103	0x3d62a1e6	0.05533018
104	0x3e3a17af	0.18173097
105	0x3d9d3350	0.07675803
106	0x3e6efe8d	0.23339291
107	0xbdcc8df1	-0.09988011
108	0x3e0255ec	0.12728089
109	0x3c84aa18	0.016194388
110	0x3cb8664a	0.022509713
111	0x3d0feb50	0.03513652
112	0x39bd0ade	0.00036056986
113	0x3e66fdb4	0.22557718
114	0x3e509ba0	0.20371866
115	0x3ce1c433	0.027559375
116	0x3e180fdc	0.148498
117	0xbd1d8191	-0.038453642
118	0x3e09d42c	0.13459843
119	0x3ca91cfd	0.020643706
120	0x3d3c734d	0.046008397
121	0x3e27b919	0.16379203
122	0x3e093cf9	0.13402165
123	0x3e1fd295	0.15607674
124	0x3b8c8b64	0.0042890776
125	0x3d1a788b	0.037712615
126	0x3e143417	0.14472996
127	0xbd203059	-0.039108608
128	0x3cce7264	0.02520103
129	0x3d55d449	0.052204404
130	0x3e14ca29	0.14530243
131	0x3dd1b8d0	0.10240328
132	0x3df5791f	0.11985993
133	0x3d3e467b	0.046453934
134	0x3e193f9a	0.14965668
135	0x3c384d98	0.011248969
136	0x3d084893	0.033272337
137	0x3e18b3fd	0.1491241
138	0x3dff61c5	0.1246982
139	0x3deb082d	0.11476169
140	0x3d0f6552	0.035008736
141	0x3dbc2737	0.09187167
142	0x3cb7de49	0.022444861
143	0x3e0fb4a7	0.14033757
144	0x3d3aab8b	0.045573752
145	0x3e2dca0b	0.16971605
146	0x3e247287	0.16059314
147	0xbd4a517b	-0.049394112
148	0x3e4e3fbb	0.20141499
149	0x3df872ac	0.12131247
150	0x3e526b97	0.20548855
151	0x3cd15621	0.025553765
152	0x3da79ee6	0.08184604
153	0x3de0b4c6	0.1097198
154	0x3c731a2b	0.014837782
155	0x3e0d296b	0.13785331
156	0x3e1c56cf	0.1526749
157	0x3e3a3b4e	0.18186685
158	0x3ca4a369	0.020097451
159	0xbbee2575	-0.007267649
160	0x3c8c1c9b	0.017103484
161	0x3e1156a6	0.1419321
162	0x3dad9b84	0.08476928
163	0x3dda288f	0.10652267
164	0xbd2e7956	-0.042596184
165	0x3df61088	0.12014872
166	0x3db367c9	0.0876003
167	0x3e2b75e3	0.16744189
168	0x3da8210f	0.082094304
169	0xbd9b9968	-0.07597619
170	0x3d1a63d4	0.03769286
171	0x3cf06daf	0.029349176
172	0x3d3771d0	0.044786274
173	0x3e6948b9	0.22781648
174	0x3e3c9fe6	0.18420371
175	0x3d6de0c4	0.05807568
176	0x3de29af2	0.1106471
177	0x3bc0d7a2	0.0058850804
178	0x3d0db04a	0.03459195
179	0x3a0d4a9d	0.00053898414
180	0x3e0cfbb6	0.13767895
181	0xbaa5e51a	-0.0012656779
182	0xbb862816	-0.004094134
183	0x3e1d378f	0.15353225
184	0x3e809230	0.25111532
185	0x3e7741f2	0.2414625
186	0x3dc7b2e1	0.09750915
187	0x3d532611	0.051549975
188	0x3de6386e	0.11241232
189	0x3e863a29	0.26216248
190	0x3e539337	0.20661627
191	0x3cc0ffb5	0.02355943
192	0x3e36a92b	0.1783797
193	0xbc16faf8	-0.009215109
194	0x3d6509fb	0.05591772
195	0x3da510f8	0.08059877
196	0x3e1754fe	0.14778516
197	0x3de0cf82	0.10977079
198	0xbcb4e091	-0.022079738
199	0x3e07ceae	0.13262436
200	0x3cf297ab	0.029613337
201	0x3e1c38ab	0.15255992
202	0x3cabb736	0.020961385
203	0xbc145104	-0.009052519
204	0x3d21fe20	0.039548993
205	0x3cacac9f	0.021078406
206	0xbcb9d297	-0.022683425
207	0x3d8d944e	0.069130525
208	0x3e684e17	0.22686039
209	0xba234576	-0.0006228307
210	0x3e3c7345	0.18403347
211	0x3c943746	0.018092763
212	0x3e0f94c7	0.14021598
213	0x3dee9615	0.116497196
214	0x3e26c841	0.16287328
215	0x3df7670f	0.12080204
216	0x3dc14ecb	0.09438857
217	0xbd9c931d	-0.07645247
218	0x3e3a55e3	0.18196826
219	0x3dd080e5	0.10180835
220	0xbb881544	-0.0041529257
221	0x3d9e325a	0.077244475
222	0x3e2bb4f6	0.1676825
223	0xbbb8a5ee	-0.0056350147
224	0x3d731040	0.05934167
225	0x3de2529b	0.11050912
226	0x3debbc91	0.115105756
227	0xbda87268	-0.08224946
228	0x3dcadc80	0.09905338
229	0x3d91ae63	0.0711334
230	0x3ddff9ff	0.10936355
231	0xbdc49b21	-0.09599901
232	0x3d3926c4	0.045202985
233	0xbd4ea7ea	-0.050453104
234	0xbdc1806a	-0.09448321
235	0x3ce7f9e7	0.028317405
236	0x3e568176	0.20947823
237	0x3d28134c	0.041034028
238	0x3d83b15d	0.06430314
239	0x3db4d48f	0.08829605
240	0x3e4caf31	0.19988705
241	0x3e5c9e8a	0.21544853
242	0x3e16d632	0.14730147
243	0x3db92e37	0.09042018
244	0x3c894d45	0.016760478
245	0x3a348184	0.00068857544
246	0x3da107e1	0.07862831
247	0x3da6525a	0.08121176
248	0x3e03655d	0.12831636
249	0xbbe1c36f	-0.0068897526
250	0x3e165583	0.14681058
251	0x3e09e01d	0.13464399
252	0x3d30ae76	0.04313513
253	0x3c12f14a	0.008968661
254	0x3d285dfc	0.041105255
255	0xbc3d573f	-0.011556446

running_mean f4 [256]
0	0xbfdd0259	-1.7266341
1	0xbf865560	-1.0494804
2	0xbfa3bbc0	-1.2791672
3	0x3f892ad8	1.07162
4	0xbf71218e	-0.94191825
5	0xbff10e53	-1.8832496
6	0x3c86a1ae	0.016434517
7	0xbdc5dd2e	-0.09661327
8	0x40460086	3.093782
9	0xbded3d3e	-0.11583947
10	0xc01521ea	-2.330195
11	0x4020b863	2.511254
12	0x3f324645	0.6963847
13	0xbea2d0d4	-0.31799948
14	0x3f54d32f	0.8313474
15	0xbfcea69b	-1.6144594
16	0xc0020d64	-2.0320673
17	0xbfe99e1c	-1.8251376
18	0xbf2f28fd	-0.6842192
19	0xbe1d7368	-0.15376055
20	0x3f8a3ebc	1.0800395
21	0xbec63e0b	-0.3871921
22	0xc0693422	-3.643807
23	0xbf7d041e	-0.9883441
24	0xbf3cb80a	-0.7371832
25	0xc0141b30	-2.3141594
26	0x3fa1eaf6	1.2649829
27	0x3ee809c9	0.45319965
28	0xbfde3d0d	-1.7362381
29	0xbf53b0cb	-0.8269164
30	0x3e29ae46	0.16570386
31	0xbfdc11e9	-1.7192966
32	0xbfacb7f2	-1.3493636
33	0xbfd27871	-1.6443006
34	0xbfb93fa4	-1.4472547
35	0x3e350027	0.1767584
36	0xbfe15c19	-1.7606231
37	0xbeb5980e	-0.3546757
38	0xbe9f438f	-0.3110623
39	0xbfc034ce	-1.5016115
40	0xbf8a4200	-1.0801392
41	0xc026e1c3	-2.6075294
42	0xbf1e2faa	-0.6179148
43	0xc001fa58	-2.0309048
44	0xc06b6eab	-3.6786296
45	0xbfd3c990	-1.6545887
46	0xbfb93463	-1.4469112
47	0xbf84a2c9	-1.0362178
48	0x3ff4a21f	1.9111975
49	0x3f4e6b36	0.8063234
50	0x3fb58072	1.4179823
51	0xc017d5c8	-2.3724232
52	0xbe21d93c	-0.15805525
53	0xbf4239d3	-0.7586948
54	0xbfa786d5	-1.3088022
55	0xbf2ad677	-0.667335
56	0xc02cdfea	-2.7011666
57	0x3edb93b1	0.42886117
58	0xbdba4a97	-0.09096258
59	0xbe592bd7	-0.2120813
60	0xbfa16d40	-1.2611465
61	0x3e675339	0.2259034
62	0xbf8c8464	-1.0977902
63	0xc0a6a02e	-5.207053
64	0x3e65d50d	0.22444554
65	0x3f849b77	1.0359944
66	0xc05779d3	-3.3668106
67	0xbee6c704	-0.45073712
68	0xc007d6bc	-2.1224813
69	0xc040af17	-3.0106866
70	0x4002d2d7	2.0441186
71	0x3ef18824	0.4717418
72	0xc016cd23	-2.3562706
73	0xbe8ab957	-0.27094528
74	0x3f479e0a	0.77975523
75	0xc009d5b0	-2.1536674
76	0xbed79248	-0.4210379
77	0xbe61d008	-0.22052014
78	0x40476b2a	3.1159158
79	0xbe797f7b	-0.24365036
80	0xbc80792d	-0.015682781
81	0xbe37cc83	-0.17949109
82	0x3ed7d1c5	0.4215223
83	0xc031593f	-2.7710721
84	0x3da6131f	0.08109116
85	0x403659b4	2.849225
86	0x3f1504d8	0.58210516
87	0x405d51f1	3.4581263
88	0xbfe877ba	-1.8161538
89	0xbf761f0e	-0.96141136
90	0xbfdc2054	-1.7197366
91	0xc038ce26	-2.8875823
92	0x3fa732a5	1.306233
93	0xc0395b3e	-2.896194
94	0xbbee6113	-0.0072747557
95	0x4011035c	2.26583
96	0x3e02e521	0.12782718
97	0x3ebe1674	0.37126505
98	0xbfdf0de4	-1.7426114
99	0xc0818f85	-4.0487695
100	0xbee77ad4	-0.45210898
101	0x3febadb7	1.8412389
102	0xbe4e520f	-0.2014849
103	0x3e90caad	0.2827963
104	0xbfd2d3c3	-1.6470875
105	0x3ea851c8	0.32874894
106	0xc08494f2	-4.143182
107	0xbf708b5a	-0.93962634
108	0x4015ffbd	2.343734
109	0xc01a3e55	-2.4100544
110	0x40216687	2.5218828
111	0x4035fad8	2.8434353
112	0xc010ad44	-2.2605753
113	0xbf1b42d6	-0.6064886
114	0xc01ca043	-2.4472816
115	0xbf16e355	-0.5894063
116	0xbec54e05	-0.38536087
117	0xc048dc86	-3.1384597
118	0xbecaaaa6	-0.3958332
119	0xbfb3a4cd	-1.4034668
120	0x3f985cae	1.1903284
121	0x402dc63b	2.715224
122	0xbee5f6cc	-0.44914854
123	0xc07b26e5	-3.924249
124	0x3f214da4	0.63009095
125	0xc006fd3c	-2.1092062
126	0xbfcf8559	-1.621257
127	0x408dbe54	4.4294834
128	0x3cc874c3	0.024469739
129	0x3e40bafe	0.18821332
130	0xc006508d	-2.0986664
131	0xbffbe332	-1.967871
132	0xc07293a5	-3.7902615
133	0xbf900a22	-1.1253092
134	0xc05f179d	-3.4858162
135	0x3f952376	1.1651447
136	0x3e0c9c8a	0.1373159
137	0x4083488f	4.1026073
138	0xbf84b446	-1.0367515
139	0xc013a9a6	-2.3072295
140	0xbec3c09e	-0.38232893
141	0xbeb78ec6	-0.35851115
142	0xbf664069	-0.8994203
143	0xbfcfc841	-1.6232988
144	0x407dfff2	3.9687467
145	0xbf93d430	-1.154913
146	0x3d9b599c	0.07585451
147	0x3caea8b2	0.021320675
148	0x3d227dd7	0.03967079
149	0x3ee1dae2	0.44112307
150	0xbf9320f2	-1.1494429
151	0x4007555b	2.1145847
152	0xbfea4358	-1.8301802
153	0xbfb1de06	-1.3895881
154	0xbecce568	-0.40018773
155	0x3e1972cd	0.149852
156	0x3edf5a84	0.43623745
157	0xc0489690	-3.1341896
158	0xbf3db102	-0.7409822
159	0xc0148173	-2.320401
160	0xbf00425f	-0.50101274
161	0xc0362a03	-2.8463142
162	0xc005628f	-2.0841405
163	0x3f27f67e	0.6561049
164	0x3f9ff683	1.2497104
165	0xbeb0b138	-0.34510207
166	0xc013f305	-2.3117077
167	0xbfd23eba	-1.6425393
168	0xc014a82f	-2.322765
169	0x3feb1f2d	1.8368889
170	0xbf9464ff	-1.1593322
171	0x3ff52460	1.9151726
172	0x4039c23e	2.9024806
173	0xc03efc19	-2.9841368
174	0xc021960b	-2.524783
175	0xbfcdd686	-1.6081092
176	0xbfb87360	-1.441021
177	0x3fa3f740	1.280983
178	0x4035b42e	2.8391223
179	0x3fe45234	1.7837586
180	0xc059aca6	-3.4011626
181	0xbf0ce9a2	-0.55043995
182	0xbfd72f9e	-1.6811407
183	0xc06a53d0	-3.6613655
184	0xc00a2938	-2.1587658
185	0xc06012b6	-3.501142
186	0x3f130dd4	0.57442975
187	0x3ffce81f	1.9758338
188	0xbfed8d95	-1.8558832
189	0x3fba384a	1.4548428
190	0xc00c73b3	-2.1945617
191	0xc008070e	-2.1254306
192	0xc060d6c4	-3.5131083
193	0xbeba3d8f	-0.3637509
194	0x40738c91	3.8054545
195	0xc03ff119	-2.9990904
196	0x3e9bfb40	0.30465126
197	0xbfc67068	-1.5503054
198	0xbdf3f45b	-0.119118415
199	0x3fa662be	1.2998884
200	0xc018dc6b	-2.3884532
201	0xc0331645	-2.7982342
202	0x3f27171d	0.65269643
203	0xc00ad000	-2.1689453
204	0xbf6ff25a	-0.93729174
205	0x3fe27af7	1.7693776
206	0xbf4028fb	-0.7506253
207	0xbe4ba5a6	-0.19887409
208	0xc023c245	-2.5587323
209	0xbfda1392	-1.7037222
210	0xc058ebf2	-3.389401
211	0x3f9fefa3	1.2495006
212	0x40625b99	3.5368407
213	0xbf8e5a9e	-1.1121404
214	0xc021d875	-2.5288365
215	0xbed39b48	-0.41329408
216	0xbfa0e179	-1.2568809
217	0x3f21ea60	0.6324825
218	0xbf6de30e	-0.9292458
219	0xbf5e2fea	-0.8679186
220	0xbf8b90ec	-1.0903602
221	0xbfa09f6e	-1.2548654
222	0xbd9aeb19	-0.075643726
223	0x3faebf8f	1.3652209
224	0xc0166544	-2.3499308
225	0x3f635034	0.88794255
226	0xc00fadc9	-2.244982
227	0xc019ea27	-2.4049165
228	0xbfd10c3a	-1.6331856
229	0xc039a140	-2.900467
230	0xbfa43669	-1.2829105
231	0x3ee05982	0.4381829
232	0x3fb98e50	1.4496555
233	0xbdb47154	-0.08810678
234	0x4034d0cd	2.8252442
235	0xbf8ea1bc	-1.1143107
236	0xc032cd92	-2.793797
237	0x3fac52c2	1.3462756
238	0xbfab7ceb	-1.3397497
239	0xbf93183c	-1.1491771
240	0x3f8436ef	1.0329264
241	0x3f553f5c	0.83299804
242	0xc077c51a	-3.8714051
243	0x4003d9a2	2.0601583
244	0xc04e37fc	-3.222167
245	0x4009ab6b	2.1510875
246	0xc036c698	-2.8558712
247	0xbfc8f6aa	-1.5700276
248	0x3fcc307a	1.5952294
249	0x406416c2	3.563889
250	0xc00c92d0	-2.1964607
251	0xbfe20336	-1.765723
252	0x40279c54	2.6189165
253	0xbf81917b	-1.0122522
254	0xc02b2496	-2.674108
255	0xbf087226	-0.53299177
